face-search-core/src/main/resources/model/onnx/detection_face_pcn/pcn1_sd.onnx (onnx, 231579 bytes, 14 tensors)

conv1.weight f4 [16, 3, 3, 3]
0.023728594 0.038996987 -0.06197833 0.0027642546 0.028358117 0.032183524 0.01985856 -0.024295487
0.053397857 -0.069628835 -0.028331447 -0.20204744 -0.058614757 0.00782761 -0.04874937 -0.07162363
-0.0790291 -0.057255793 0.013319261 -0.06272155 -0.37078366 0.15580407 0.12533613 -0.056162637
0.28865898 0.23445077 0.13669738 -0.031677924 -0.126081 0.24527168 0.113464125 -0.25106463
-0.2649868 0.08376527 0.25116464 -0.031555526 -0.0025060968 -0.18468225 0.11009886 0.19135244
-0.26279727 -0.35893872 0.16616441 0.32389203 -0.02592457 0.027108531 -0.28440273 -0.04114282
0.27765343 -0.26704088 -0.4436285 0.28032756 0.41957098 0.07596685 -0.07196939 0.18157485
-0.0639165 0.24022132 0.15605152 -0.20380607 0.12066591 -0.21288559 -0.114239536 -0.04912723
0.19042145 -0.1388446 0.29989818 0.1544341 -0.30368778 0.18870187 -0.19695593 -0.20866363
0.11701238 0.34466195 -0.18801598 0.43018472 0.20070334 -0.4220268 0.23079681 -0.26581526
-0.41094694 0.25897682 0.1101644 -0.042448424 -0.05689885 -0.51827246 -0.10374931 -0.068821244
0.11177613 0.3055089 0.2873488 0.0963648 -0.04545559 -0.07226986 -0.6053345 -0.120631844
-0.020501377 0.11860334 0.38449377 0.34749898 0.09347689 -0.006741454 -0.08483722 -0.6614472
-0.1208867 -0.029668378 0.08852954 0.37447384 -0.07201086 -0.02546085 0.22685783 -0.016595285
-0.36812463 0.26530603 0.16513698 -0.27264565 0.09216298 -0.12610114 -0.0425625 0.24872613
-0.0666912 -0.4005223 0.30325782 0.14014144 -0.2718939 0.18869057 -0.05736975 0.010881281
0.25857452 -0.08013522 -0.386136 0.29606444 0.07218357 -0.2728103 0.1804104 0.045734067
-0.07102102 -0.38142806 0.010259302 0.5398729 0.09020896 -0.20069575 -0.07239765 0.025162762
0.08901404 -0.08072294 -0.45767075 0.015977522 0.59224147 0.12457579 -0.3098062 -0.09630226
0.11494623 0.13221669 -0.04897004 -0.5289832 0.0269333 0.6677854 0.16194634 -0.39399466
-0.13152814 0.12792403 0.021385718 -0.05005259 -0.036538873 0.020627428 -0.034706194 -0.017444186
-0.0012603974 -0.03951604 -0.0017201576 0.0713131 0.027620459 0.03660967 0.073096894 0.05064765
0.05576252 0.07626959 0.035376683 0.08109755 -0.006613323 0.04523085 0.0478894 0.01758248
0.060346786 0.05178695 0.005746271 0.034764286 0.048582383 -0.008075363 0.034360413 -0.008195054
0.068424486 0.08649603 0.012982989 0.02296683 0.03055845 -0.065177724 -0.15517469 -0.1193691
-0.2127106 -0.14538197 -0.11031413 -0.17812118 -0.23421885 -0.2061914 -0.28169656 0.1425018
0.08039215 0.24944898 0.060597885 0.026164133 0.1602343 0.1809874 0.15535364 0.34256238
0.08313952 0.19368333 0.15116853 -0.008717381 -0.0074069155 0.0068202345 -0.06675843 -0.12522614
-0.122085124 0.0812839 0.2180211 0.21596658 -0.06977367 -0.050580468 0.0082023125 -0.19643487
-0.24229705 -0.16926913 0.1442639 0.34190938 0.3886799 -0.07729861 -0.0084964745 0.12583202
-0.31318024 -0.3531915 -0.16997766 0.043066557 0.078425355 0.16085438 0.06284031 0.11483757
0.18576077 0.062784925 0.12572744 0.14814 -0.23436278 -0.21726821 -0.14237009 -0.21384019
00000000: 7862 c23c 4ebb 1f3d fddc 7dbd 7f28 353b
00000010: 484f e83c dfd2 033d 6bae a23c 5407 c7bc
00000020: b6b7 5a3d 9099 8ebd 5a17 e8bc 86e5 4ebe
00000030: 0716 70bd 603f 003c 6bad 47bd 69af 92bd
00000040: 02da a1bd 0d85 6abd 0839 5a3c 2874 80bd
00000050: 5bd7 bdbe 1a8b 1f3e 1d58 003e cb0a 66bd
00000060: 1ccb 933e dd13 703e 66fa 0b3e b6c0 01bd
00000070: 611b 01be 8028 7b3e e15f e83d 8b8b 80be
00000080: 5aac 87be 208d ab3d a798 803e 5e40 01bd
00000090: 543d 24bb 581d 3dbe 837b e13d e5f1 433e
000000a0: 5d8d 86be d1c6 b7be 0127 2a3e 2dd5 a53e
000000b0: c45f d4bc b612 de3c 3c9d 91be 6085 28bd
000000c0: 9728 8e3e 95b9 88be 4623 e3be 1887 8f3e
000000d0: 02d2 d63e 8294 9b3d b064 93bd c2ee 393e
000000e0: a7e6 82bd 94fc 753e f8cb 1f3e 8ab2 50be
000000f0: b01f f73d aefe 59be 6bf6 e9bd a239 49bd
00000100: d7fd 423e 472d 0ebe 418c 993e f923 1e3e
00000110: f77c 9bbe 103b 413e d1ae 49be ebab 55be
00000120: 30a4 ef3d 8877 b03e 4387 40be 2c41 dc3e
00000130: 2d85 4d3e e613 d8be 0056 6c3e f018 88be
00000140: a367 d2be 9c98 843e df9d e13d 66de 2dbd
00000150: c50e 69bd 81ad 04bf 857a d4bd 27f2 8cbd
00000160: e2ea e43d aa6b 9c3e 621f 933e e95a c53d
00000170: a42f 3abd 3802 94bd 34f7 1abf d40d f7bd
00000180: 81f2 a7bc 4fe6 f23d 5edc c43e 63eb b13e
00000190: d070 bf3d 6ae7 dcbb 23bf adbd 9b54 29bf
000001a0: 7293 f7bd 190b f3bc fa4e b53d 09bb bf3e
000001b0: 6e7a 93bd 4693 d0bc 6b4d 683e d6f2 87bc
000001c0: d57a bcbe 31d6 873e ab19 293e 3698 8bbe
000001d0: f2bf bc3d a820 01be 0456 2ebd 10b2 7e3e
000001e0: 6595 88bd 4211 cdbe 9c44 9b3e 3d81 0f3e
000001f0: ad35 8bbe 1a38 413e 8bfc 6abd 6747 323c
00000200: e163 843e ef1d a4bd 9eb3 c5be c295 973e
00000210: fbd4 933d cbad 8bbe 81bd 383e a553 3b3d
00000220: 7873 91bd 8a4a c3be a216 283c 1c35 0a3f
00000230: 7abf b83d 3083 4dbe 3845 94bd 2322 ce3c
00000240: fe4c b63d 1252 a5bd d253 eabe 4be3 823c
00000250: 239d 173f 9721 ff3d eb9e 9ebe 1f3a c5bd
00000260: ee68 eb3d d063 073e cf94 48bd 716b 07bf
00000270: 39a3 dc3c fcf3 2a3f 43d5 253e abb9 c9be
00000280: 50af 06be 84fe 023e 1a31 af3c f203 4dbd
00000290: c9a9 15bd dafa a83c 1528 0ebd 1ce7 8ebc
000002a0: eb33 a5ba 92db 21bd e976 e1ba 9a0c 923d
000002b0: 4d44 e23c 05f4 153d d3b3 953d e973 4f3d
000002c0: 3d67 643d 3b33 9c3d 24e7 103d 7916 a63d
000002d0: 93b4 d8bb fc43 393d ad27 443d 2209 903c
000002e0: 312e 773d 8e1e 543d 374b bc3b ff64 0e3d
000002f0: 52fe 463d 874e 04bc 81bd 0c3d 8c44 06bc
00000300: 2322 8c3d d524 b13d 9ab6 543c ef24 bc3c
00000310: b755 fa3c e67b 85bd 1de6 1ebe c977 f4bd
00000320: cfd0 59be 03df 14be 60ec e1bd 6665 36be
00000330: 11d7 6fbe d723 53be 883a 90be feeb 113e
00000340: a4a4 a43d 8e6f 7f3e 7d35 783d 2a56 d63c
00000350: 7614 243e c354 393e 0615 1f3e 5664 af3e
00000360: 0d45 aa3d ec54 463e eccb 1a3e 59d3 0ebc
00000370: b6b5 f2bb 467c df3b a5b8 88bd 483b 00be
00000380: c407 fabd 2c78 a63d ec40 5f3e 5826 5d3e
00000390: 7fe5 8ebd 772d 4fbd fe62 063c 3926 49be
000003a0: b81c 78be e354 2dbe eab9 133e bf0e af3e
000003b0: 0d01 c73e bc4e 9ebd cc34 0bbc 1cda 003e
000003c0: 2959 a0be 84d5 b4be a00e 2ebe 8f66 303d
000003d0: 799d a03d 03b7 243e 6cb2 803d f62f eb3d
000003e0: 1238 3e3e 6295 803d b2be 003e 03b2 173e
000003f0: ccfc 6fbe 8f7b 5ebe 77c9 11be ecf8 5abe

conv1.bias f4 [16]
0.16674344 0.10733037 0.07670707 -0.0037926012 0.06910732 -0.16340305 0.21706884 0.2017454
0.1942833 0.07941541 0.28049988 0.08201574 0.21678406 0.23744242 0.17834067 0.11080585
00000000: cbbe 2a3e 06d0 db3d 9918 9d3d 4a8d 78bb
00000010: 2388 8d3d 2153 27be 4b47 5e3e 5996 4e3e
00000020: 34f2 463e 8ca4 a23d ae9d 8f3e def7 a73d
00000030: a4fc 5d3e 1b24 733e f09e 363e 2dee e23d

conv2.weight f4 [32, 16, 3, 3]
0.014659609 0.06444125 0.032353338 -0.01763002 0.08437781 0.026915515 -0.08261756 -0.028096478
-0.045706492 -0.027602121 -0.029569777 -0.03999765 0.0021613725 -0.015247153 -0.031455435 0.056409705
0.020688435 -0.0074182875 -0.048534863 -0.09272236 -0.037668142 -0.070438415 -0.105098136 -0.0355954
-0.039184324 -0.041463003 0.0002038133 -0.004887317 0.025445163 0.03343058 -0.04053989 -0.022021893
0.025483591 -0.011803011 0.009532654 0.041598067 -0.03277264 -0.02891977 -0.012246007 -0.012906077
-0.016112553 -0.018757163 0.016735151 -0.014026422 -0.036884025 -0.047950566 -0.022076057 -0.0044290414
-0.028270317 -0.035451073 -0.0029145952 0.03837531 0.027271712 0.014954224 -0.014568512 0.017100174
0.051914327 0.0035218154 0.026339805 0.031795423 -0.05705068 -0.00043224407 0.02057353 0.14748365
0.2931614 0.24336083 0.01275843 0.13247426 0.08790409 -0.3146542 -0.2402875 -0.33661973
0.0009297265 0.006342401 0.015423262 0.034010105 0.014983547 -0.005604867 0.06459146 0.026331192
0.020990642 0.13154851 0.20872113 0.18555076 -0.025620276 0.024588086 -0.001787191 -0.18344793
-0.14899972 -0.17594004 0.057871133 0.026947452 -0.015999135 0.0064208223 0.013187572 -0.023745371
-0.018806404 -0.021619596 -0.043897755 -0.018944044 -0.004331112 -5.9451264e-05 -0.0092449775 0.009463372
0.028862812 -0.053537324 -0.014426631 0.03634504 0.046107076 0.016909344 -0.006079373 0.01464341
0.034581024 0.051718295 0.019363651 0.064032026 0.097670354 0.03225273 0.06820441 0.04009027
0.02850061 0.047410917 0.01987017 -0.0570231 -0.0740219 -0.10853558 0.022179278 0.045285225
0.066413365 -0.0030299963 -0.010391393 -0.01934146 -0.015451584 -0.050898105 -0.061383594 0.010950808
0.018238228 0.009720245 -0.00024409815 0.0038942492 0.0008007489 0.024185125 -0.016631572 -0.037213888
-0.028069494 0.015191177 0.006622721 -0.015255843 -0.011951011 -0.032071374 -0.0055538835 -0.016948516
-0.00845424 0.005113936 -0.005339532 -0.010307617 0.006178964 0.034663547 0.0420391 0.018698737
0.059015296 0.06442918 -0.012872254 -0.026692871 -0.010837946 -0.013026342 -0.04331689 -0.033136275
0.020644668 -0.004183094 -0.029964235 0.004425137 0.0013666806 0.023028407 0.017928973 0.0009830504
0.0036608505 0.013120473 -0.006730693 -0.018930348 0.015536647 -0.0034530433 -0.014814836 0.003563922
0.026414962 0.011680937 0.03652392 0.0795221 0.044243965 0.0053323596 0.011195266 0.011506284
0.023595467 0.07174206 0.07468589 0.02023522 0.05588339 0.06624095 -0.016842026 0.011938904
0.043512274 0.032957535 0.04597143 0.03646701 0.081585556 0.03282156 -0.011688719 -0.24492386
-0.17495629 -0.12852268 0.009070357 0.009245752 -0.016376626 0.13875748 0.11568691 0.113964096
0.00049666635 0.0155994035 0.057214685 -0.009159312 0.0074004345 0.06595981 -0.008098718 -0.013734981
0.01672294 -0.083599545 -0.05781406 -0.02227418 -0.0033800171 -0.007336867 -0.015630094 0.054913152
0.01966919 -0.034022633 0.0030059507 -0.028845383 -0.009673589 0.033191014 -0.008676557 0.0025287173
0.07187596 0.038862653 0.03502827 -0.05002664 -0.03313289 0.00317685 -0.020746447 0.014417874
-0.0033553797 0.01782669 0.018674165 -0.0031521884 0.039515562 0.042337824 0.048063613 0.029562661
00000000: db2e 703c c6f9 833d ef84 043d d56c 90bc
00000010: 46ce ac3d ed7d dc3c 6533 a9bd 962a e6bc
00000020: bb36 3bbd d81d e2bc 513c f2bc 93d4 23bd
00000030: d0a5 0d3b 32cf 79bc 6ad7 00bd dd0d 673d
00000040: cb7a a93c 1b15 f3bb 7ecc 46bd 38e5 bdbd
00000050: e949 1abd 0442 90bd b13d d7bd 7bcc 11bd
00000060: be7f 20bd 1cd5 29bd b7b6 5539 c925 a0bb
00000070: 6072 d03c 81ee 083d 280d 26bd 4267 b4bc
00000080: f7c2 d03c 6b61 41bc d92e 1c3c bc62 2a3d
00000090: 9b3c 06bd 27e9 ecbc 7aa3 48bc 0374 53bc
000000a0: 79fe 83bc 9fa8 99bc 2818 893c 14cf 65bc
000000b0: b413 17bd d067 44bd d9d8 b4bc 7e21 91bb
000000c0: 2797 e7bc 2535 11bd cb02 3fbb 6e2f 1d3d
000000d0: ed68 df3c 9002 753c c5b0 6ebc aa15 8c3c
000000e0: 1ea4 543d 42ce 663b 93c6 d73c eb3b 023d
000000f0: f9ad 69bd d19e e2b9 d289 a83c f405 173e
00000100: 4019 963e 9533 793e bc08 513c 55a7 073e
00000110: 0f07 b43d 5b1a a1be ed0d 76be 6c59 acbe
00000120: e4b8 733a ead3 cf3b d9b1 7c3c 2e4e 0b3d
00000130: 8d7d 753c 08a9 b7bb 8748 843d 83b4 d73c
00000140: 91f4 ab3c a7b4 063e feba 553e 0501 3e3e
00000150: 9de1 d1bc f46c c93c 2e40 eaba c6d9 3bbe
00000160: 6293 18be a029 34be 480a 6d3d e7c0 dc3c
00000170: 9e10 83bc c365 d23b b010 583c a785 c2bc
00000180: e30f 9abc 941b b1bc 22ce 33bd 8a30 9bbc
00000190: 00ec 8dbb 4f5b 79b8 3f78 17bc 420c 1b3c
000001a0: b471 ec3c f449 5bbd ad5d 6cbc 89de 143d
000001b0: c6da 3c3d 7785 8a3c 7a35 c7bb eaea 6f3c
000001c0: d5a4 0d3d 90d6 533d 85a0 9e3c 3923 833d
000001d0: 6507 c83d 701b 043d c1ae 8b3d b235 243d
000001e0: 1c7a e93c f331 423d c4c6 a23c 0e91 69bd
000001f0: cb98 97bd e747 debd 51b1 b53c 007d 393d
00000200: bb03 883d e792 46bb a940 2abc fb71 9ebc
00000210: a428 7dbc 887a 50bd 5d6d 7bbd 056b 333c
00000220: 5668 953c aa41 1f3c 99f4 7fb9 a936 7f3b
00000230: 59e9 513a e21f c63c ef3e 88bc 976d 18bd
00000240: fff1 e5bc 6ae4 783c 6903 d93b a5f3 79bc
00000250: 2cce 43bc 465d 03bd 5afd b5bb 9dd7 8abc
00000260: a783 0abc ce92 a73b 3ef7 aebb 47e1 28bc
00000270: e878 ca3b 5dfb 0d3d 3131 2c3d 182e 993c
00000280: 06ba 713d 72f3 833d 25e6 52bc 02ab dabc
00000290: a491 31bc 706c 55bc 0d6d 31bd e7b9 07bd
000002a0: 021f a93c 5612 89bb 8e77 f5bc bd00 913b
000002b0: 3122 b33a 12a6 bc3c c8df 923c b3d9 803a
000002c0: e1ea 6f3b 41f7 563c 258d dcbb d113 9bbc
000002d0: 6c8d 7e3c 744c 62bb edb9 72bc b090 693b
000002e0: 3164 d83c 6761 3f3c 1b9a 153d 7cdc a23d
000002f0: 2939 353d 13bb ae3b 596c 373c da84 3c3c
00000300: 484b c13c 80ed 923d eaf4 983d 55c4 a53c
00000310: fbe5 643d 56a9 873d 4af8 89bc 659b 433c
00000320: ed39 323d 7bfe 063d 8a4c 3c3d 6e5e 153d
00000330: 5416 a73d e66f 063d 0a82 3fbc 52cd 7abe
00000340: be27 33be 739b 03be d69b 143c 7f7b 173c
00000350: 4628 86bc 7116 0e3e 42ed ec3d 0266 e93d
00000360: b732 023a a494 7f3c f259 6a3d f010 16bc
00000370: 587f f23b f015 873d 7cb0 04bc b008 61bc
00000380: 8cfe 883c 3d36 abbd 70ce 6cbd 5778 b6bc
00000390: 4783 5dbb 1a6a f0bb af0a 80bc 9dec 603d
000003a0: 4821 a13c 515b 0bbd 7cff 443b 274d ecbc
000003b0: f97d 1ebc 4df3 073d 1e28 0ebc d6b8 253b
000003c0: b433 933d 722e 1f3d ce79 0f3d bce8 4cbd
000003d0: 5ab6 07bd b332 503b 74f4 a9bc f238 6c3c
000003e0: eee5 5bbb 4709 923c 90fa 983c f294 4ebb
000003f0: 12db 213d 6d6a 2d3d 5ade 443d 652d f23c

conv2.bias f4 [32]
-0.14387678 0.27473137 0.14829434 0.1814334 0.10817215 0.16126601 -0.0026887285 0.138539
0.09774332 0.54161626 0.1585882 0.084023386 0.12334723 0.043299172 0.42515275 -0.19969594
0.14183906 0.045976304 0.019213818 0.12876199 0.03147211 0.20135283 0.042431943 -0.1031214
0.020042993 -0.035467096 0.3719163 0.050418448 0.13749363 0.09469704 0.058670662 0.058638435
00000000: 6f54 13be 97a9 8c3e 79da 173e adc9 393e
00000010: 5c89 dd3d eb22 253e 6135 30bb 2bdd 0d3e
00000020: a62d c83d 5da7 0a3f f264 223e 7414 ac3d
00000030: 799d fc3d 795a 313d 9fad d93e 187d 4cbe
00000040: 423e 113e a651 3c3d 4c66 9d3c 2fda 033e
00000050: e6e8 003d 702f 4e3e 1ecd 2d3d 5031 d3bd
00000060: 3431 a43c f245 11bd d06b be3e 9383 4e3d
00000070: 21cb 0c3e 86f0 c13d a650 703d db2e 703d

conv3.weight f4 [64, 32, 3, 3]
0.04198559 -0.011578732 -0.06088217 -0.0049223793 -0.05891189 -0.06937372 -0.008687164 -0.09868204
-0.08583645 0.05962943 0.042297874 0.045201775 0.010966367 0.011065372 0.024156597 -0.06418801
-0.060751535 -0.039812386 -0.0017695796 0.041830253 0.058024283 -0.0044991965 0.009921809 0.01181389
0.00017776543 -0.006104449 -0.01759165 -0.024597874 0.014742685 -0.01624195 -0.03656295 0.03023752
0.06967071 0.0026722571 -0.0015989159 0.054061867 -0.027234018 0.0059974194 -0.00097415963 0.006597358
0.052469674 0.008172312 0.0070753647 0.017852588 0.0016056751 -0.02801767 0.013402006 0.010414035
-0.020183943 -0.02026723 0.058651987 0.0017184598 0.024496032 0.016005293 0.00040610816 -0.037015155
-0.037342127 0.01637214 -0.0036964132 0.00015721118 0.023505704 0.033597745 0.0041700006 -0.0034311453
-0.015046719 0.0016719886 -0.024540905 -0.078211695 0.001462677 0.013906056 -0.0051766513 -0.041129433
0.02428416 0.008683045 0.059482697 0.08691209 0.06337673 0.103326075 0.040583916 0.070411906
0.09095539 0.0049538054 0.00271426 -0.0037293357 0.04699466 0.046532027 -0.007907672 0.070542164
0.0852048 0.012390838 0.0177119 0.019799978 0.015760409 -0.004468055 0.0034242652 -0.0041248174
-0.020208912 -0.03325647 -0.027729014 0.0021710705 0.010914126 0.022517148 0.008467332 0.008547757
0.01962678 0.02757677 0.014557122 0.02942425 0.0019825785 0.0091271065 0.08160182 -0.0051720515
-0.058982104 -0.0117519 -0.009220337 -0.070896894 -0.04634171 0.010525987 0.014300525 0.034882944
0.023013338 0.008892081 0.020924823 0.028363733 -0.03082689 -0.012034355 0.0075959717 -0.016077701
-0.056607112 0.019255513 0.024544489 0.0025476597 0.0146904355 0.024034845 -0.0012913636 0.032486185
0.021958448 0.002568801 0.013237887 0.00065065286 -0.012835871 -0.0086010145 -0.029723277 -0.025726443
-0.016223518 0.006294505 0.009824186 -0.03456594 -0.01737294 -0.020803746 0.0026795403 -0.024142506
-0.10098632 -0.011352662 0.01303596 0.013478821 0.010840452 0.037428156 0.020681184 0.029010043
0.021527281 0.012614413 0.004755939 0.00879029 -0.003134682 -0.020921463 -0.030720113 0.03328272
0.0074904608 -0.0033515233 0.0042974656 0.0035210208 -0.0058574243 -0.08515838 -0.015817406 -0.0060399384
-0.034226503 -0.043902922 -0.04704122 0.005294161 -0.025804866 -0.06594102 -0.101989344 -0.039802406
-0.014434997 -0.019270178 -0.017858429 -0.033605933 -0.009057443 0.00217514 0.00028340885 -0.007949628
0.015565574 0.023072926 -0.0047240537 0.0015578272 -0.02648512 -0.04467954 0.025745261 0.04117728
0.02930601 0.034582127 0.050748713 0.04962823 0.021382412 0.030415026 0.05714089 0.00072645553
-0.011989414 -0.06649944 -0.03161508 -0.051310003 -0.03172325 -0.07092566 -0.0486603 -0.057888824
-0.040989652 -0.004755696 -0.079888985 -0.020833392 -0.029462751 -0.047543872 -0.03119552 -0.042783912
-0.059161223 0.034266166 0.040011104 0.033990476 0.03770027 0.01576267 0.056867655 0.017977579
0.009157136 0.026345657 -0.058362655 -0.050118983 -0.065727 -0.046358928 -0.03687847 -0.032911405
0.033780996 0.07460648 0.032754917 0.00016323902 -0.023830388 -0.00068470126 -0.0030621535 0.015501696
-0.0037856118 -0.024840586 -0.024022205 -0.012753506 -0.009430447 0.02629976 0.04271532 0.010881443
00000000: 15f9 2b3d b9b4 3dbc 955f 79bd e94b a1bb
00000010: 984d 71bd cf13 8ebd 9b54 0ebc cf19 cabd
00000020: 05cb afbd fd3d 743d 8940 2d3d 7f25 393d
00000030: 47ac 333c 894b 353c 0ee4 c53c 0175 83bd
00000040: 9ad6 78bd 5012 23bd 3df1 e7ba 3356 2b3d
00000050: dfaa 6d3d ff6d 93bb 158f 223c 0c8f 413c
00000060: 8b66 3a39 d407 c8bb 5d1c 90bc 7b81 c9bc
00000070: 4d8b 713c d70d 85bc 08c3 15bd adb4 f73c
00000080: 84af 8e3d 0921 2f3b b792 d1ba fa6f 5d3d
00000090: e019 dfbc 0086 c43b bf5e 7fba a62e d83b
000000a0: 71ea 563d 29e5 053c 76d8 e73b 973f 923c
000000b0: 8475 d23a 5085 e5bc 1694 5b3c a19f 2a3c
000000c0: cc58 a5bc 7607 a6bc 113d 703d f13d e13a
000000d0: e7ab c83c 881d 833c eaea d439 349d 17bd
000000e0: 0ff4 18bd de1e 863c 863f 72bb 0ed9 2439
000000f0: 098f c03c ca9d 093d 80a4 883b 11dd 60bb
00000100: 8486 76bc a126 db3a 020a c9bc 742d a0bd
00000110: 4cb7 bf3a 3ad6 633c e6a0 a9bb 5677 28bd
00000120: 93ef c63c 5543 0e3c 21a4 733d f7fe b13d
00000130: a9cb 813d 9f9c d33d 523b 263d 1e34 903d
00000140: d246 ba3d 8853 a23b bae1 313b df67 74bb
00000150: 797d 403d 5e98 3e3d 2e8f 01bc 6978 903d
00000160: db7f ae3d f102 4b3c 8c18 913c 9033 a23c
00000170: f91b 813c c368 92bb a369 603b 7a29 87bb
00000180: 298d a5bc f037 08bd f527 e3bc 8548 0e3b
00000190: 2ad1 323c e275 b83c 91ba 0a3c e40b 0c3c
000001a0: 57c8 a03c aee8 e13c ff80 6e3c 200b f13c
000001b0: 26ee 013b dc89 153c db1e a73d 507a a9bb
000001c0: 3897 71bd 0b8b 40bc e510 17bc 6432 91bd
000001d0: ced0 3dbd 3075 2c3c c04c 6a3c 6be1 0e3d
000001e0: 7886 bc3c 17b0 113c 896a ab3c 0f5b e83c
000001f0: ad88 fcbc be2b 45bc a1e7 f83b 62b5 83bc
00000200: dcdc 67bd bdbd 9d3c 8611 c93c a3f6 263b
00000210: 27b0 703c b9e4 c43c f942 a9ba 3c10 053d
00000220: 34e2 b33c 5459 283b b9e3 583c 9390 2a3a
00000230: 8c4d 52bc 45eb 0cbc 3b7e f3bc 43c0 d2bc
00000240: 2fe7 84bc 2342 ce3b 9ff5 203c 0495 0dbd
00000250: b251 8ebc 9e6c aabc 3a9b 2f3b 81c6 c5bc
00000260: ead1 cebd 8400 3abc c794 553c 46d6 5c3c
00000270: 279c 313c 444e 193d 966b a93c 78a6 ed3c
00000280: fb59 b03c afac 4e3c b5d7 9b3b 2605 103c
00000290: 3d6f 4dbb 7d63 abbc bfa8 fbbc 7653 083d
000002a0: 8a72 f53b 3ba5 5bbb c1d1 8c3b edc0 663b
000002b0: a3ef bfbb 8467 aebd 8193 81bc adea c5bb
000002c0: 1731 0cbd 8dd3 33bd 4bae 40bd a47a ad3b
000002d0: ba64 d3bc 160c 87bd cadf d0bd d907 23bd
000002e0: c480 6cbc 7edc 9dbc d74b 92bc 60a6 09bd
000002f0: ab65 14bc cb8c 0e3b 7e96 9439 283f 02bc
00000300: c006 7f3c 6f03 bd3c 3ccc 9abb 0230 cc3a
00000310: 53f7 d8bc e501 37bd bae7 d23c 82a9 283d
00000320: 2813 f03c fda5 0d3d e2dd 4f3d f946 4b3d
00000330: 2b2a af3c ef28 f93c 910c 6a3d 9b6f 3e3a
00000340: 3f6f 44bc dc30 88bd d07e 01bd 702a 52bd
00000350: 3df0 01bd 7941 91bd 0650 47bd d51c 6dbd
00000360: c4e4 27bd abd5 9bbb d69c a3bd caaa aabc
00000370: de5b f1bc 5dbd 42bd bf8d ffbc 2f3e 2fbd
00000380: 0a53 72bd ae5a 0c3d afe2 233d 9939 0b3d
00000390: 996b 1a3d b720 813c 0fee 683d b745 933c
000003a0: d007 163c d9d2 d73c ae0d 6fbd 9049 4dbd
000003b0: e19b 86bd dce2 3dbd e10d 17bd 1cce 06bd
000003c0: f15d 0a3d 48cb 983d 052a 063d 242b 2b39
000003d0: f237 c3bc 867d 33ba 69ae 48bb d3fa 7d3c
000003e0: 0718 78bb 7c7e cbbc 37ca c4bc 15f4 50bc
000003f0: 2982 1abc 9872 d73c 42f6 2e3d 1448 323c

conv3.bias f4 [64]
0.07661158 0.03570477 0.37027842 0.12075358 0.600209 -0.051741596 0.12224684 0.2519555
0.2957876 -0.06401907 0.12902272 0.07121276 0.09838343 0.032565854 0.11167054 0.19798839
0.14061707 -0.31883526 0.025831034 0.29280874 0.43480912 -0.24002117 0.39886007 0.019472819
-0.053074382 0.09846931 0.35064313 0.11474312 -0.003157443 0.26259422 0.07076635 0.31610313
0.20799446 0.12303619 -0.13111365 0.18800169 0.109428816 -0.15681118 0.18746504 -0.13240366
0.10777626 0.20071422 0.13049933 0.16563356 0.21662346 0.15442207 0.07604658 -0.03647042
0.08100614 0.29826975 -0.0490947 0.15765248 0.09757071 0.29055145 0.13427095 0.21580742
0.17175536 0.4092949 -0.021997089 0.17877051 0.4557992 0.11350296 0.35986602 0.051951196
00000000: 88e6 9c3d 2a3f 123d 2295 bd3e a74d f73d
00000010: 4ca7 193f ffee 53bd 8d5c fa3d 5000 813e
00000020: 7971 973e 6e1c 83bd 881e 043e ffd7 913d
00000030: 407d c93d c663 053d 86b3 e43d 78bd 4a3e
00000040: ecfd 0f3e 603e a3be 9b9b d33c 07eb 953e
00000050: 4d9f de3e 1cc8 75be 6337 cc3e 7685 9f3c
00000060: 8664 59bd 47aa c93d 7f87 b33e 71fe ea3d
00000070: 1aed 4ebb c072 863e f3ed 903d 45d8 a13e
00000080: 80fc 543e 66fa fb3d a842 06be 8483 403e
00000090: 371c e03d 1c93 20be d6f6 3f3e d394 07be
000000a0: cdb9 dc3d 0788 4d3e 9ea1 053e d89b 293e
000000b0: 8ad2 5d3e d220 1e3e 4fbe 9b3d 0262 15bd
000000c0: 8ce6 a53d d0b6 983e 8617 49bd a76f 213e
000000d0: 27d3 c73d 29c3 943e 537e 093e 9ffc 5c3e
000000e0: a3e0 2f3e 1a8f d13e 3d33 b4bc 9e0f 373e
000000f0: 835e e93e 3d74 e83d 5c40 b83e c7ca 543d

conv4.weight f4 [128, 64, 2, 2]
0.053085566 0.031978317 0.0007679619 -0.012587099 -0.0054035364 0.04092846 0.053151194 -0.061937813
-0.031054808 -0.012066466 -0.0038426851 -0.045082487 -0.01100592 0.020116843 -0.015558223 -0.040671226
-0.0073231603 -0.023219954 0.01183729 -0.0050894045 -0.047431324 -0.0372882 0.007915523 0.0056711887
-0.031471636 0.021469973 -0.0009069961 0.035534948 0.012383383 -0.042756982 -0.050752867 0.010371842
0.049463138 0.051364712 0.048166573 -0.0024619384 0.01685489 0.03485137 0.034208823 -0.03355048
-0.057621013 -0.010217018 -0.039729763 -0.015916485 -0.017365292 -0.015992284 -0.07451435 0.027337268
-0.011061884 -0.028318021 0.027772479 0.01926593 -0.032741804 -0.016726898 -0.0015826945 -0.0011674671
-0.01039279 0.033617117 0.025368046 0.024948932 -0.0016344951 -0.0029107423 -0.02729938 0.028006008
-0.036981773 -0.008343741 0.0501341 0.02924572 -0.028832417 -0.034711078 -0.02183877 -0.018947572
-0.04369622 0.044276122 -0.0046965154 -0.022877978 -0.00585599 0.007860594 0.020010928 -0.014557839
-0.07544401 0.017674353 -0.02272759 0.0033793862 -0.0044314396 0.012940905 -0.09108695 -0.019317312
0.028589752 -0.04284009 -0.01825819 0.07345456 -0.009800405 0.0013443504 0.0038458798 0.00022337103
-0.006899123 0.022687 -0.06150906 -0.0020372504 0.027088962 -0.07137492 0.01733739 -0.018183354
-0.010288654 0.046760734 -0.03356562 0.0044038286 -0.06433808 -0.016689211 0.057570815 0.02248446
0.031346455 0.0032661627 0.05105954 0.0005651282 -0.039155528 0.03072274 -0.0056397724 -0.010974857
-0.014479302 0.0552502 -0.026153391 -0.017918784 -0.057227515 -0.017240385 0.08917615 -0.05205141
-0.04863316 -0.034894954 -0.047047008 -0.022364805 0.009309619 -0.04759082 0.024570938 0.027395474
-0.012240141 0.03239778 0.020993397 0.009321038 -0.017624628 0.009486715 0.0048637246 0.026223468
-0.05028925 0.023452854 -0.018717347 -0.062948994 0.024318457 0.011084576 -0.01743851 0.006523614
0.0146488715 -0.01730635 0.002477929 0.03110129 0.04541048 -0.007058108 -0.04936037 -0.020207671
-0.05898669 -0.014928029 0.010259441 0.010388039 -0.028513642 0.0033203142 0.036497306 0.017393867
0.041194454 0.03120182 0.011528931 -0.052957818 0.010180263 0.041837268 -0.008269329 -0.011687468
-0.016170438 -0.04371585 0.015444541 -0.0050433706 -0.047359664 -0.036398068 -0.0041382876 0.034834895
-0.025074547 -0.032860357 -0.02160072 0.03752668 -0.0062614023 -0.039615802 -0.010503649 0.023344401
0.004563838 0.009208648 -0.023900073 0.0041288296 0.011334547 0.0066313823 -0.016464109 0.045807887
-0.036440518 -0.025920661 0.018287558 0.02419403 0.0017058032 0.03566106 0.020287316 0.04844785
-0.011067201 0.018211085 0.036124464 -0.06825015 -0.009593525 -0.03685896 0.044916246 -0.022724438
0.0007719042 -0.012716231 0.018838894 -0.0041987216 -0.008762451 -0.029351393 -0.026965741 -0.01110762
-0.06448122 0.042712733 -0.0030998823 0.032823473 -0.038412724 0.010287634 -0.013905135 0.024172494
0.042805474 0.016041592 0.010017224 0.010354039 -0.010176588 -0.0049432786 -0.039094336 0.033994365
-0.03210761 0.011362684 -0.00012318138 0.015456656 0.02502294 -0.019591345 0.005077744 -0.013264728
-0.018564036 -0.012498404 -0.045678798 0.012581006 -0.008728831 -0.000882567 -0.030081365 0.014340561
00000000: 4070 593d b2fb 023d 0d51 493a 1f3a 4ebc
00000010: 2610 b1bb 9aa4 273d 11b5 593d 81b2 7dbd
00000020: a766 febc 6db2 45bc 8fd5 7bbb 6aa8 38bd
00000030: 2d52 34bc 14cc a43c ebe7 7ebc df96 26bd
00000040: 1ff7 efbb c637 bebc 31f1 413c 05c5 a6bb
00000050: 5947 42bd 83bb 18bd 1cb0 013c 61d5 b93b
00000060: 67e8 00bd cce1 af3c 7ac3 6dba 188d 113d
00000070: ace3 4a3c f221 2fbd 3de2 4fbd a9ee 293c
00000080: dc99 4a3d ce63 523d 504a 453d 7958 21bb
00000090: 4413 8a3c 4fc0 0e3d 8d1e 0c3d 3a6c 09bd
000000a0: 0304 6cbd 4865 27bc adbb 22bd 4a63 82bc
000000b0: a841 8ebc 4002 83bc fb9a 98bd 68f2 df3c
000000c0: e83c 35bc 32fb e7bc 1c83 e33c 95d3 9d3c
000000d0: 451c 06bd d906 89bc 6a72 cfba b205 99ba
000000e0: 8546 2abc 1ab2 093d a6d0 cf3c b461 cc3c
000000f0: 8e3c d6ba 27c2 3ebb f3a2 dfbc db6c e53c
00000100: 337a 17bd 30b4 08bc 6a59 4d3d b894 ef3c
00000110: f631 ecbc 342d 0ebd 38e7 b2bc f037 9bbc
00000120: cffa 32bd e15a 353d 3ae5 99bb 996a bbbc
00000130: 9be3 bfbb b9c9 003c f5ed a33c 0184 6ebc
00000140: 6482 9abd cec9 903c 362f babc b178 5d3b
00000150: 9c35 91bb 1706 543c cb8b babd 573f 9ebc
00000160: 0e35 ea3c 1779 2fbd 3392 95bc 586f 963d
00000170: e191 20bc ea34 b03a 280b 7c3b b438 6a39
00000180: 0a12 e2bb 16da b93c edf0 7bbd 6483 05bb
00000190: ace9 dd3c 042d 92bd 2407 8e3c 42f5 94bc
000001a0: be91 28bc 2f88 3f3d 1b7c 09bd fe4d 903b
000001b0: afc3 83bd d0b7 88bc 60cf 6b3d 5531 b83c
000001c0: 2465 003d 1e0d 563b cf23 513d 1d25 143a
000001d0: 8c61 20bd 41ae fb3c d7cd b8bb e3cf 33bc
000001e0: 983a 6dbc 094e 623d a33f d6bc 6aca 92bc
000001f0: 6667 6abd b53b 8dbc fca1 b63d dc33 55bd
00000200: 9033 47bd 03ee 0ebd 5db4 40bd 6536 b7bc
00000210: 5f87 183c 97ee 42bd fe48 c93c 796c e03c
00000220: df8a 48bc 89b3 043d 58fa ab3c 44b7 183c
00000230: 8661 90bc 2b6e 1b3c e15f 9f3b 99d2 d63c
00000240: 1afc 4dbd 3320 c03c 1f55 99bc 67eb 80bd
00000250: 8037 c73c 159c 353c 35db 8ebc 0ac4 d53b
00000260: d201 703c 0cc6 8dbc c064 223b 22c8 fe3c
00000270: 5700 3a3d b447 e7bb 192e 4abd 8f8a a5bc
00000280: 079c 71bd b194 74bc 3717 283c 9832 2a3c
00000290: 7195 e9bc a199 593b 337e 153d 957d 8e3c
000002a0: 84bb 283d f69a ff3c d7e3 3c3c 4cea 58bd
000002b0: 1ecb 263c 8e5d 2b3d 147c 07bc cb7c 3fbc
000002c0: de77 84bc 640f 33bd 1a0b 7d3c dc42 a5bb
000002d0: 35fc 41bd 2416 15bd 799a 87bb 09af 0e3d
000002e0: 2369 cdbc 9598 06bd fef3 b0bc 93b5 193d
000002f0: 732c cdbb 2e44 22bd 7f17 2cbc c23c bf3c
00000300: 3f8c 953b dfdf 163c 16ca c3bc 224b 873b
00000310: 89b4 393c 114c d93b bddf 86bc 0da1 3b3d
00000320: a742 15bd 9157 d4bc cacf 953c 8f32 c63c
00000330: 4295 df3a 5511 123d 9631 a63c 4171 463d
00000340: 3553 35bc 6a2f 953c 3ff7 133d bcc6 8bbd
00000350: 292e 1dbc 6cf9 16bd 19fa 373d 9a28 babc
00000360: 9d59 4a3a bd57 50bc 0654 9a3c 6e95 89bb
00000370: 6290 0fbc 5572 f0bc 42e7 dcbc bcfc 35bc
00000380: bb0e 84bd 8cf3 2e3d 6527 4bbb e871 063d
00000390: a956 1dbd 778d 283c 5dd2 63bc 6505 c63c
000003a0: cb54 2f3d a869 833c 481f 243c fda3 293c
000003b0: b4bb 26bc 3afb a1bb 6221 20bd ad3d 0b3d
000003c0: 4583 03bd 8d2a 3a3c 402a 01b9 ea3d 7d3c
000003d0: e9fc cc3c 077e a0bc 3463 a63b 4d54 59bc
000003e0: 9b13 98bc 1bc6 4cbc b119 3bbd 9020 4e3c
000003f0: 5f03 0fbc 125c 67ba 326d f6bc acf4 6a3c

conv4.bias f4 [128]
0.15425067 0.22107883 0.15874247 0.18794474 0.3142768 0.22744565 0.4702694 0.37981156
0.2936976 0.26642567 0.27769807 0.19335541 0.56588143 0.19396164 0.22467329 0.395776
0.94425637 0.21889174 0.19186053 0.19209439 0.4632661 0.37885582 0.28709573 0.20682585
0.108127445 0.2297238 0.13145801 0.17400987 0.32439187 0.29577246 0.18269238 0.17444931
0.27645445 0.43350294 0.68218064 0.11710015 0.19482738 0.3846014 0.19959669 0.2206755
0.3198891 0.35035232 0.23307785 0.38377166 0.18903202 0.30371916 0.30449203 0.11380691
0.14128222 0.15960148 0.18382095 0.23044826 0.35405073 0.30289602 0.22969636 0.26790258
0.22556195 0.1462477 0.16859314 0.30236125 0.31619993 0.4838015 0.27340862 0.2340016
0.1799622 0.16544978 0.1644705 0.1743375 0.18388619 0.29983932 0.049064633 0.105669685
0.39082184 0.15856187 0.24083619 0.27070397 0.20656316 0.27818722 0.30779147 0.0895884
0.10238226 0.17123821 0.21715374 0.2987893 0.15637383 0.16676384 0.28801224 0.13728742
0.27235892 0.24046889 0.19271383 0.19372156 0.33556753 0.24207191 0.15642089 0.33862165
0.23542234 0.23008202 0.20348443 0.37367165 0.23615472 0.08301733 0.22680035 0.81644344
0.24036182 0.2150386 0.27676114 0.25807312 0.3724914 0.30302373 0.27964264 0.17790923
0.16965084 0.2964863 0.10946485 0.5762428 0.29264244 0.1489214 0.28054482 0.24559915
0.4623372 0.44332218 0.047979474 0.59253424 0.11593976 0.39413786 0.5429642 0.24161518
00000000: e3f3 1d3e 7d62 623e 638d 223e 9674 403e
00000010: e4e8 a03e 83e7 683e 27c7 f03e a976 c23e
00000020: 885f 963e f268 883e 712e 8e3e f6fe 453e
00000030: 9bdd 103f e19d 463e c110 663e 27a3 ca3e
00000040: c9ba 713f 2825 603e 1677 443e 64b4 443e
00000050: 3731 ed3e 64f9 c13e 36fe 923e 28ca 533e
00000060: ec71 dd3d b73c 6b3e ee9c 063e a52f 323e
00000070: b116 a63e 7d6f 973e b613 3b3e d7a2 323e
00000080: 708b 8d3e 19f4 dd3e 64a3 2e3f 34d2 ef3d
00000090: d480 473e 7aea c43e 1363 4c3e c2f8 613e
000000a0: 81c8 a33e 6161 b33e f6ab 6e3e b87d c43e
000000b0: 9c91 413e 1481 9b3e 61e6 9b3e 9913 e93d
000000c0: 49ac 103e 926e 233e 8f3b 3c3e a1fa 6b3e
000000d0: 2346 b53e 3015 9b3e 8635 6b3e 872a 893e
000000e0: b6f9 663e f5c1 153e aea3 2c3e 18cf 9a3e
000000f0: f5e4 a13e d5b4 f73e 37fc 8b3e 1e9e 6f3e
00000100: 0348 383e ab6b 293e f46a 283e 8885 323e
00000110: a94c 3c3e 8a84 993e fff7 483d 5969 d83d
00000120: cd19 c83e 0b5e 223e c39d 763e b699 8a3e
00000130: 4b85 533e 8e6e 8e3e d896 9d3e 207a b73d
00000140: caad d13d 1259 2f3e 8d5d 5e3e e9fa 983e
00000150: 7620 203e 24c4 2a3e 5776 933e 1395 0c3e
00000160: a172 8b3e 7a3d 763e c656 453e f25e 463e
00000170: 82cf ab3e b3e1 773e cc2c 203e d15f ad3e
00000180: 8e12 713e 9f9a 6b3e 395e 503e e451 bf3e
00000190: 8bd2 713e fd04 aa3d 5a3e 683e 7002 513f
000001a0: 6921 763e 1433 5c3e a3b3 8d3e 2922 843e
000001b0: 31b7 be3e ed25 9b3e 522d 8f3e d62d 363e
000001c0: f3b8 2d3e 0dcd 973e 1b2f e03d a684 133f
000001d0: 3bd5 953e da7e 183e 92a3 8f3e 587e 7b3e
000001e0: 76b7 ec3e 20fb e23e 2086 443d 53b0 173f
000001f0: d371 ed3d 70cc c93e b4ff 0a3f f869 773e

rotate.weight f4 [2, 128, 1, 1]
0.1549421 -0.16619794 -0.12261594 0.23904712 0.2011131 -0.12286399 -0.054977026 -0.050285935
0.2362915 -0.17006116 0.17924288 0.15953413 -0.025189348 -0.032202385 0.22701666 -0.17395192
0.027832642 0.17155625 -0.109513365 -0.058400005 0.026600473 -0.20137317 0.13744374 -0.14520511
0.02907101 -0.17363936 0.12497442 -0.12339874 -0.17223622 -0.08127577 0.12650143 -0.11675198
0.18414386 0.10750662 0.034672763 0.15735057 0.15303087 -0.00682635 0.18830569 0.13741063
0.20241986 -0.1778826 -0.13598351 0.08126955 0.17942059 -0.06792939 -0.17541333 0.12402341
0.1324572 0.16300784 0.16001691 0.15898514 -0.17720322 -0.15470006 -0.12967266 -0.16497003
0.11330429 -0.11124652 -0.15299845 0.023027588 0.004654628 0.11939793 0.007305615 0.21271671
-0.11235603 -0.1748034 0.13986273 0.015501859 -0.090313144 -0.17326872 0.04040926 -0.08762573
-0.039918397 -0.15675956 -0.16941115 0.0024384505 -0.18911509 -0.16318057 0.040276702 -0.0039949785
0.08119089 -0.16492973 0.14866954 0.16048571 0.14081755 0.14155728 -0.021103075 0.13220493
-0.17155682 -0.18844497 0.24936625 0.16980037 0.045747545 0.16783261 -0.18832575 -0.09381763
0.1136156 0.07381822 0.10631186 -0.13810338 -0.16124648 0.15387908 0.13072714 -0.050672088
0.1581126 -0.15369809 0.13760215 0.07599894 -0.18944918 -0.2052458 -0.11248705 0.154087
-0.23561619 -0.016966386 0.15730716 0.06982028 -0.02551992 -0.027170777 -0.2540589 -0.10765524
-0.0835347 -0.0982707 -0.04674158 -0.12445456 0.17421004 0.09286614 -0.05258002 -0.029557172
-0.16571522 0.17509994 0.13013344 -0.22949666 -0.21066438 0.12196454 0.052242562 0.04030858
-0.24188446 0.16023022 -0.17669266 -0.14899811 0.007763287 0.027056027 -0.22530653 0.16961463
-0.037039362 -0.17767122 0.11159994 0.068373844 -0.02080642 0.2073441 -0.12543312 0.1413085
-0.012035214 0.17519459 -0.116880655 0.12602617 0.17310853 0.09014121 -0.11588878 0.11096202
-0.18286663 -0.12671258 -0.035874136 -0.15646937 -0.15535982 0.008049555 -0.18883665 -0.13092777
-0.22142342 0.17838313 0.14489992 -0.07953259 -0.17534037 0.05791023 0.18011102 -0.13993618
-0.14380278 -0.16353081 -0.13944224 -0.15139368 0.1716295 0.15460777 0.14121987 0.16772704
-0.11442684 0.11333853 0.13370052 -0.024271846 3.0071304e-05 -0.12690331 -0.0008955344 -0.21104228
0.11550492 0.1643231 -0.14124027 -0.026404427 0.09595431 0.17349426 -0.03283731 0.088166505
0.051530313 0.16629544 0.16952732 -0.0069278413 0.17633711 0.17421427 -0.051537044 -0.0062591988
-0.08020516 0.15907031 -0.15833715 -0.16884384 -0.15509178 -0.14808252 0.010178024 -0.14592695
0.1691582 0.1952161 -0.25750822 -0.16002393 -0.055635963 -0.16953248 0.19239374 0.09427427
-0.10916625 -0.09236624 -0.11776141 0.13681911 0.1584152 -0.14439167 -0.14579378 0.051890507
-0.17207974 0.15159498 -0.14398776 -0.08799635 0.19447152 0.20738438 0.11801589 -0.16087094
0.24179131 0.01490854 -0.15737809 -0.06934435 0.016446646 0.02558106 0.24615687 0.118061595
0.095897734 0.08960503 0.043575663 0.12015555 -0.16324434 -0.0901444 0.054415513 0.030599946
00000000: 24a9 1e3e cb2f 2abe 111e fbbd c5c8 743e
00000010: 98f0 4d3e 1ea0 fbbd 972f 61bd a0f8 4dbd
00000020: 66f6 713e 8324 2ebe 728b 373e ea5c 233e
00000030: e459 cebc a6e6 03bd 0e77 683e 7420 32be
00000040: 4801 e43c 71ac 2f3e 8b48 e0bd d834 6fbd
00000050: 3ce9 d93c c534 4ebe 0dbe 0c3e a6b0 14be
00000060: 5426 ee3c 84ce 31be 97f2 ff3d 7bb8 fcbd
00000070: b15e 30be e973 a6bd 9789 013e a91b efbd
00000080: 3590 3c3e 6e2c dc3d 0705 0e3d 8220 213e
00000090: 20b4 1c3e 93af dfbb 35d3 403e 5fb5 0c3e
000000a0: 2747 4f3e db26 36be 433f 0bbe a670 a63d
000000b0: 08ba 373e 901e 8bbd 8d9f 33be fcff fd3d
000000c0: dca2 073e 87eb 263e 79db 233e 00cd 223e
000000d0: c374 35be b169 1ebe e9c8 04be e7ed 28be
000000e0: 140c e83d 37d5 e3bd a0ab 1cbe 5aa4 bc3c
000000f0: da85 983b e786 f43d f163 ef3b 69d2 593e
00000100: eb1a e6bd aaff 32be 2d38 0f3e 82fb 7d3c
00000110: 19f6 b8bd 5b6d 31be 2e84 253d 1e75 b3bd
00000120: 7981 23bd 9485 20be 1e7a 2dbe 69ce 1f3b
00000130: 63a7 41be cf18 27be 2ff9 243d 4fe8 82bb
00000140: 6947 a63d 57e3 28be d43c 183e 5e56 243e
00000150: 7a32 103e 64f4 103e 5be0 acbc bb60 073e
00000160: 97ac 2fbe b8f7 40be de59 7f3e 26e0 2d3e
00000170: c761 3b3d 50dc 2b3e 77d8 40be 7523 c0bd
00000180: 4caf e83d 022e 973d 08ba d93d f96a 0dbe
00000190: cc1d 25be 7a92 1d3e 56dd 053e 898d 4fbd
000001a0: 45e8 213e 0863 1dbe 94e7 0c3e 55a5 9b3d
000001b0: f7fe 41be f42b 52be 9c5f e6bd fcc8 1d3e
000001c0: 5f45 71be 17fd 8abc 2115 213e effd 8e3d
000001d0: 270f d1bc 4095 debc 0214 82be 5a7a dcbd
000001e0: 3e14 abbd 2642 c9bd 1974 3fbd 08e2 febd
000001f0: 1e64 323e 9a30 be3d 265e 57bd e221 f2bc
00000200: 40b1 29be 664d 333e b341 053e 2c01 6bbe
00000210: 67b8 57be 8bc8 f93d 4cfc 553d 9c1a 253d
00000220: 8fb0 77be 6413 243e ecee 34be f692 18be
00000230: 2c63 fe3b 9aa4 dd3c c1b6 66be 75af 2d3e
00000240: 96b6 17bd 72ef 35be 828e e43d 9607 8c3d
00000250: 3a72 aabc 0352 543e 8a71 00be 2db3 103e
00000260: 592f 45bc 3666 333e 205f efbd 010d 013e
00000270: 5d43 313e f49b b83d 1957 edbd 0e40 e33d
00000280: 6441 3bbe f1c0 01be c2f0 12bd 8239 20be
00000290: a516 1fbe 48e2 033c 655e 41be ee11 06be
000002a0: d2bc 62be 11aa 363e a560 143e fce1 a2bd
000002b0: 6d8c 33be 4733 6d3d 066f 383e 6e4b 0fbe
000002c0: 0941 13be 9f74 27be f2c9 0ebe f206 1bbe
000002d0: a5bf 2f3e 8051 1e3e f19b 103e a3c0 2b3e
000002e0: 9e58 eabd 081e e83d cae8 083e c0d5 c6bc
000002f0: a241 fc37 f1f2 01be 4cc2 6aba 781b 58be
00000300: d88d ec3d 5144 283e 4aa1 10be 194e d8bc
00000310: b183 c43d 7ba8 313e 6a80 06bd a490 b43d
00000320: 7311 533d 5a49 2a3e 9298 2d3e f202 e3bb
00000330: b791 343e 3a65 323e 8218 53bd f719 cdbb
00000340: 9a42 a4bd 54e3 223e 2223 22be 66e5 2cbe
00000350: 61d0 1ebe f2a2 17be bac1 263c e06d 15be
00000360: cf37 2d3e bbe6 473e 1ed8 83be 50dd 23be
00000370: 89e2 63bd ec99 2dbe dd02 453e de12 c13d
00000380: 8e92 dfbd 832a bdbd e52c f1bd 4f1a 0c3e
00000390: 9837 223e 69db 13be f74a 15be 248b 543d
000003a0: ac35 30be b73b 1b3e 8771 13be 6e37 b4bd
000003b0: 8b23 473e 925c 543e 51b2 f13d 5abb 24be
000003c0: 2498 773e f342 743c b927 21be 6904 8ebd
000003d0: 1ebb 863c 5f8f d13c 8c10 7c3e 47ca f13d
000003e0: 0866 c43d d882 b73d 657c 323d 1d14 f63d
000003f0: 8629 27be a19d b8bd cde2 5e3d bdac fa3c

rotate.bias f4 [2]
0.0639321 0.13607079
00000000: d5ee 823d 2456 0b3e

cls_prob.weight f4 [2, 128, 1, 1]
-0.019939534 -0.055978265 -0.008601852 -0.078480355 -0.11072099 -0.101840265 0.16406767 0.15580653
-0.10373484 -0.12819342 -0.05533144 0.0044009457 0.17051679 0.08625838 -0.07895881 -0.06427514
0.27550304 -0.10506465 -0.092730455 -0.12410374 0.14672159 -0.10295838 0.120810516 0.003438215
-0.13201326 -0.012399271 -0.04194861 -0.0031974078 -0.052791644 0.12948115 -0.026811257 0.026690796
-0.07166771 0.10635777 0.19848861 -0.012896305 -0.04188914 -0.112516865 -0.08983587 -0.030494522
-0.09865091 -0.025743885 -0.051948804 0.09848004 -0.04295356 0.12057761 -0.057864036 -0.004097767
0.0059921737 0.031778578 0.03505447 -0.04029787 -0.09621769 -0.016653204 0.048885506 -0.023978215
0.088203624 0.019587468 -0.09013322 0.14209688 -0.16352329 0.12391511 0.12214847 -0.05087981
-0.08089802 -0.036161568 -0.065600745 0.116178356 -0.089160666 -0.07755789 -0.07906166 -0.10302676
0.1397168 -0.043237537 -0.03718136 -0.12515499 -0.09092595 -0.09079267 -0.14333135 0.12091143
0.06111225 -0.011480924 0.021250935 -0.03098011 -0.029031474 -0.03899191 -0.14828388 -0.032822482
-0.014488682 -0.09867611 -0.09533644 -0.064302295 -0.1862308 -0.028072216 -0.09376415 0.09822112
-0.09155139 -0.13556994 -0.11163573 -0.038971756 -0.10368298 -0.041123953 0.0528116 0.26469392
0.075393766 -0.059999585 -0.06631713 -0.12821862 0.025767993 -0.09224299 0.09262849 -0.04032112
-0.10388895 -0.15956739 -0.030438099 0.15764482 0.093776405 -0.13087717 -0.078962736 0.048831645
0.15328184 0.13469388 -0.10854972 0.15166599 -0.071345665 0.09629048 0.16820912 -0.11207086
0.03273987 0.050902106 0.027056849 0.06812873 0.11960455 0.10806681 -0.1660534 -0.16563137
0.08128598 0.1309141 0.06554922 -0.013441948 -0.16095074 -0.10177243 0.08882508 0.07036787
-0.28560308 0.08284156 0.10154374 0.1264346 -0.15142928 0.09747144 -0.122227184 -0.013557131
0.11543247 0.006213346 0.01869082 -0.0070880875 0.05582873 -0.12659523 0.031188857 -0.03493176
0.07110502 -0.10352262 -0.20741245 0.0063331965 0.056955736 0.11410069 0.09389783 0.025466362
0.09451024 0.01915607 0.03854207 -0.11124848 0.04642676 -0.12521966 0.078039415 0.015389381
-0.020593164 -0.030157944 -0.03315285 0.04449805 0.09802692 0.0073688067 -0.05630624 0.02656095
-0.09137298 -0.022575665 0.09720387 -0.14730003 0.15388265 -0.11890435 -0.12686881 0.05699911
0.07903192 0.04950993 0.054418027 -0.105035834 0.09610339 0.07047474 0.093888454 0.114001475
-0.13095352 0.035536323 0.035576686 0.12725769 0.08502312 0.08577675 0.14331168 -0.12215217
-0.06753698 0.021401266 -0.022346927 0.03555279 0.016339466 0.035007033 0.1510586 0.029771918
0.004757302 0.09509443 0.10568214 0.07109804 0.18931232 0.029227998 0.09069184 -0.11142708
0.07034689 0.12797436 0.12125187 0.036153574 0.09338336 0.038164314 -0.05487338 -0.2752023
-0.06165702 0.060508873 0.065589175 0.115298755 -0.0077615874 0.08532899 -0.09253602 0.054711524
0.09910081 0.15665032 0.037490696 -0.16794391 -0.075329416 0.14343312 0.081619605 -0.042619847
-0.12173301 -0.15495308 0.12307186 -0.15545021 0.074621506 -0.09917436 -0.17617626 0.13608448
00000000: 3c58 a3bc 7749 65bd c8ee 0cbc 4fba a0bd
00000010: b0c1 e2bd a191 d0bd 5b01 283e bf8b 1f3e
00000020: ef72 d4bd 2345 03be 38a3 62bd cf35 903b
00000030: f49b 2e3e 3ca8 b03d 28b5 a1bd afa2 83bd
00000040: bc0e 8d3e 232c d7bd 77e9 bdbd 1a2a febd
00000050: 2f3e 163e d8db d2bd 816b f73d ad53 613b
00000060: 7c2e 07be 5026 4bbc 4ed2 2bbd 9a8b 51bb
00000070: 0d3c 58bd b596 043e 48a3 dbbc a8a6 da3c
00000080: 85c6 92bd 1ad2 d93d 9940 4b3e 064b 53bc
00000090: f293 2bbd 3e6f e6bd defb b7bd a6cf f9bc
000000a0: 7d09 cabd d7e4 d2bc 45c8 54bd e7af c93d
000000b0: 12f0 2fbd 65f1 f63d d702 6dbd 9046 86bb
000000c0: ff59 c43b 412a 023d 4795 0f3d 610f 25bd
000000d0: c80d c5bd 4d6c 88bc 2b3c 483d f66d c4bc
000000e0: 1aa4 b43d e675 a03c c497 b8bd d881 113e
000000f0: a672 27be 35c7 fd3d fa28 fa3d 5967 50bd
00000100: dcad a5bd 271e 14bd af59 86bd ebee ed3d
00000110: de99 b6bd acd6 9ebd 14eb a1bd b2ff d2bd
00000120: ec11 0f3e d819 31bd 7b4b 18bd a128 00be
00000130: 6237 babd 82f1 b9bd 74c5 12be 69a0 f73d
00000140: d750 7a3d 7c1a 3cbc 7116 ae3c 00ca fdbc
00000150: 6ad3 edbc fbb5 1fbd bbd7 17be de70 06bd
00000160: f061 6dbc b316 cabd c03f c3bd ecb0 83bd
00000170: 49b3 3ebe b4f7 e5bc 6b07 c0bd 2828 c93d
00000180: 4c7f bbbd d9d2 0abe 46a1 e4bd d9a0 1fbd
00000190: be57 d4bd 9771 28bd fa50 583d f685 873e
000001a0: 0c68 9a3d 20c2 75bd 47d1 87bd be4b 03be
000001b0: 6617 d33c e5e9 bcbd 01b4 bd3d c227 25bd
000001c0: bbc3 d4bd a265 23be 5259 f9bc a56d 213e
000001d0: d80d c03d aa04 06be 37b7 a1bd b103 483d
000001e0: eaf5 1c3e 31ed 093e 514f debd 544e 1b3e
000001f0: ad1d 92bd f133 c53d 033f 2c3e 6885 e5bd
00000200: 3e1a 063d ba7e 503d 53a6 dd3c 1387 8b3d
00000210: 3bf3 f43d 2252 dd3d e709 2abe 459b 29be
00000220: 4479 a63d 590e 063e ab3e 863d 9e3b 5cbc
00000230: 45d0 24be 106e d0bd ece9 b53d 081d 903d
00000240: 913a 92be d6a8 a93d 2af6 cf3d 1278 013e
00000250: 4710 1bbe 1b9f c73d 3f52 fabd bb1e 5ebc
00000260: dc67 ec3d 5399 cb3b 7e1d 993c 3043 e8bb
00000270: abac 643d 2ea2 01be c67f ff3c 9b14 0fbd
00000280: 829f 913d ab03 d4bd ee63 54be b486 cf3b
00000290: 6b4a 693d 9fad e93d 814d c03d d59e d03c
000002a0: 968e c13d 31ed 9c3c 4ade 1d3d 3ed6 e3bd
000002b0: fc29 3e3d 9539 00be 21d3 9f3d be23 7c3c
000002c0: ffb2 a8bc cb0d f7bc 48cb 07bd 9643 363d
000002d0: 56c2 c83d 0876 f13b 5fa1 66bd 5996 d93c
000002e0: c221 bbbd 9af0 b8bc d312 c73d d2d5 16be
000002f0: 6a93 1d3e 2084 f3bd e6e9 01be e677 693d
00000300: 7ddb a13d edca 4a3d 70e5 5e3d 071d d7bd
00000310: dbd1 c43d 0f55 903d 9748 c03d 9b79 e93d
00000320: ae18 06be 898e 113d dcb8 113d d74f 023e
00000330: 9a20 ae3d b9ab af3d 4cc0 123e eb2a fabd
00000340: d450 8abd b551 af3c e710 b7bc cd9f 113d
00000350: 58da 853c 8963 0f3d 1baf 1a3e 3de4 f33c
00000360: 24e3 9b3b dec0 c23d e16f d83d d99b 913d
00000370: 17db 413e 8e6f ef3c a5bc b93d e233 e4bd
00000380: 0812 903d b60b 033e e752 f83d c515 143d
00000390: c63f bf3d 2f52 1c3d e9c2 60bd 51e7 8cbe
000003a0: 128c 7cbd 27d8 773d 9e53 863d c121 ec3d
000003b0: ea54 febb f7c0 ae3d 8683 bdbd 3119 603d
000003c0: 5ef5 ca3d f168 203e d88f 193d 7df9 2bbe
000003d0: 4f46 9abd 22e0 123e 2e28 a73d 2692 2ebd
000003e0: 284f f9bd 05ac 1ebe 190d fc3d 572e 1fbe
000003f0: 29d3 983d ed1b cbbd 8d67 34be bb59 0b3e

cls_prob.bias f4 [2]
0.17743517 0.02256783
00000000: 91b1 353e 2be0 b83c
