face-search-core/src/main/resources/model/onnx/detection_face_pcn/pcn2_sd.onnx (onnx, 436416 bytes, 14 tensors)

conv1.weight f4 [20, 3, 3, 3]
000000 96 7b 10 3d 20 83 13 be c2 6e 2c 3c 75 29 c5 3d
       0.03527411 -0.14405489 0.010524454 0.09627048
000010 3a 40 70 3d 66 27 bb bd 1f 9e ca bc f9 29 8c 3d
       0.058655 -0.09138374 -0.024733601 0.06843943
000020 61 77 ce 3c ad 98 3f 3c f0 58 04 be e9 47 b3 bc
       0.025203409 0.011694116 -0.12924552 -0.021884875
000030 91 a9 90 3c f8 b7 4a 3d 39 a6 22 be 8e 86 de bd
       0.01765898 0.049491853 -0.15883721 -0.10865508
000040 9d d6 a0 3d c0 f1 24 bd a1 d0 62 3e 32 0d be bc
       0.07853434 -0.040269613 0.22149898 -0.023199651
000050 e2 e2 89 be b3 58 6e 3e 1b 42 1b 3e 7a 80 b0 be
       -0.2693091 0.23276024 0.15161936 -0.3447302
000060 f9 04 4f 3e 0b 1b 7d 3e f8 ea 47 be 0d e6 24 3d
       0.2021674 0.24717347 -0.19523227 0.040258456
000070 58 4e b7 3d cb 75 f5 3d 24 2a 96 3d 5f 5b 3a 3d
       0.0895049 0.11985358 0.073322564 0.045497295
000080 a6 70 c5 bc e1 7b aa 3d b0 25 92 3b be 09 b7 bd
       -0.024101567 0.08324409 0.004460059 -0.08937405
000090 fd 1e 0c 3d a9 02 87 bd d6 74 2b be 3f 40 0d bd
       0.03420924 -0.06592304 -0.16743788 -0.034485098
0000a0 1b 77 2e be b8 f8 98 be 0b de ce bd 96 24 5f be
       -0.17037623 -0.29877257 -0.10100945 -0.217913
0000b0 97 68 a9 be 8f 78 74 bd 41 e8 3f 3c 5a e1 aa 3d
       -0.33087608 -0.059685286 0.0117130885 0.08343764
0000c0 1a 00 cc bc a7 6f 27 3e b2 d9 8b 3e c4 46 6a 3b
       -0.024902392 0.16351186 0.27314526 0.0035747746
0000d0 f1 d5 5b 3e 25 e9 a0 3e 7a e4 10 be 45 bf 43 be
       0.21468331 0.31427875 -0.14149657 -0.19115932
0000e0 9b cb 99 bd 83 3b aa 3e 47 b9 83 3e 31 14 8b bd
       -0.07509538 0.3324853 0.25727293 -0.067909606
0000f0 5d 1c 50 be 01 af 1d 3d cc 5a 97 3d e5 b8 aa bd
       -0.2032332 0.038496975 0.07390365 -0.08336047
000100 ef eb 33 be 9e 7b 1e bc 18 dc b1 3e 19 8a 85 3e
       -0.1757047 -0.009673027 0.3473823 0.26081923
000110 63 a1 06 bd 63 c4 9a be 7a a5 7e bd 13 c0 62 3d
       -0.032868754 -0.30227956 -0.06216953 0.055358957
000120 bc 14 a8 3c d6 9f c7 bd a8 e9 82 3d ed 54 b8 3e
       0.0205177 -0.09747283 0.06392223 0.36002293
000130 04 6e 75 3e e0 63 48 bc 03 11 b9 be 60 07 3e be
       0.23967749 -0.012230843 -0.3614579 -0.18557501
000140 b9 34 2b bd 84 a8 f8 bc 08 c8 d5 3d 59 a6 9a 3c
       -0.041798327 -0.030353792 0.104385436 0.018878149
000150 95 3c 1c be b2 af 0e bc 59 72 78 3d 2f b2 f1 3d
       -0.15257485 -0.008708881 0.060655925 0.11801564
000160 94 65 c6 bd d6 81 ca bc 76 e9 26 3d a0 66 3b 3e
       -0.09687343 -0.024720114 0.04074999 0.18300867
000170 48 9d 89 3d 90 77 6d be 48 c3 06 bc 09 69 26 3e
       0.06719452 -0.2319014 -0.00822527 0.16251005
000180 83 2c a1 bd 73 e9 5b be 61 70 ad 3b d8 76 17 3e
       -0.07869818 -0.21475773 0.0052929376 0.14791429
000190 73 36 87 3e 3d ed 20 3e 04 af 34 be c5 ce 41 3d
       0.2640873 0.15715499 -0.17644888 0.04731633
0001a0 d6 d9 7a 3e a5 57 72 be 61 22 a4 be d7 d3 7d bd
       0.2449716 -0.23666246 -0.3205748 -0.061969604
0001b0 7e 46 c1 3d c0 f3 0b 3b c4 05 60 be 04 60 2b 3d
       0.094372734 0.0021355003 -0.218772 0.041839615
0001c0 7a a8 2b 3e 57 14 4c be 1e 05 19 3e c6 84 4a 3b
       0.16763487 -0.19929634 0.14943358 0.0030901893
0001d0 b9 90 bf bd 42 32 90 3d ef 2d bc 3d eb 1a 29 be
       -0.093537755 0.07040836 0.09188449 -0.16514175
0001e0 6a c8 22 bc 96 f3 5a 3e 6c 25 25 be 4c 6a a0 3d
       -0.009935478 0.21381983 -0.16127557 0.078327745
0001f0 ef da 3e 3d f9 d5 38 bd a3 39 8f be bd cb 68 3e
       0.04659551 -0.045125935 -0.2797366 0.2273397
000200 93 26 59 3e ce 04 02 bf 39 03 89 3e 95 30 39 3e
       0.21206121 -0.5078858 0.2676027 0.18084939
000210 e4 d2 da be c2 13 00 bd 54 48 92 3e 69 68 5b 3d
       -0.42739022 -0.031268843 0.28570807 0.05356637
000220 11 38 a0 3d 68 a8 67 bd 7b d9 b3 3d 70 49 8b bc
       0.07823194 -0.05655709 0.087817155 -0.017002791
000230 ec f8 71 bd 7d 64 9a bc a3 5d 0c bd d7 3b 1a bd
       -0.05907528 -0.018846745 -0.034268986 -0.037654724
000240 5c 09 cb bd 60 e0 b7 bb e5 9e 41 3c 79 12 bd 3c
       -0.099138945 -0.0056114644 0.011817669 0.023080098
000250 d2 e8 13 bd 33 9a 23 bb 7c a6 51 3c cd c7 07 bd
       -0.036110707 -0.0024963736 0.012796041 -0.03314953
000260 7d b9 11 3c 17 c6 0d bf 2b b1 87 be 97 29 2a 3d
       0.0088943215 -0.55380386 -0.26502356 0.04154357
000270 e5 a2 23 be 66 a1 ca bd 73 3c 4d 3e ba 25 48 3e
       -0.15980108 -0.098940656 0.20042591 0.19545642
000280 41 85 7f 3e 63 b4 f7 3e b1 a2 32 3d c3 eb 4f 3e
       0.24953176 0.48379812 0.043612186 0.2030478
000290 8a 4e a2 3d 7e e4 23 be b5 62 a0 be 2a ee 4b be
       0.079251364 -0.16005132 -0.31325307 -0.19915071
0002a0 4d 13 9d 3d 81 9a 7c 3e 74 3d 11 3d 0c da d8 3d
       0.07669697 0.24668314 0.035458997 0.10588464
0002b0 37 47 6d 3e 6a 1b 44 3e 52 5e 57 be ea 6b f1 be
       0.23171698 0.19151083 -0.21032074 -0.47152644
0002c0 90 9d 7c be ac ae 00 3e 11 8d 49 3e 87 23 9a 3d
       -0.2466948 0.12566632 0.19682719 0.075263076
0002d0 e3 24 00 3d 63 70 40 3e 39 75 58 3e ce 4b 70 be
       0.031285178 0.18792872 0.21138467 -0.23466417
0002e0 99 67 d3 be 1c 2a 79 be 2f 63 3c 3e 1f e1 55 3e
       -0.41289976 -0.2433247 0.1839721 0.20886658
0002f0 d2 7a 93 3d 9b 5b da 3d db 51 8b be 3c 3d 7b 3e
       0.072011605 0.106620036 -0.27210888 0.24535078
000300 76 0d 69 3e 61 76 a7 be 37 0e 1f 3e 97 2b 75 3d
       0.22759041 -0.32707503 0.15532766 0.059856024
000310 e5 bb 8d bd ba 9c 69 bd f6 c8 03 3e d3 50 b3 be
       -0.06920604 -0.05703423 0.1286963 -0.350226
000320 73 5e 6f 3e e4 37 57 3e f0 93 e2 be d0 9e 0f 3e
       0.23375873 0.21017414 -0.44253492 0.14025426
000330 0a c7 d4 3d d3 ef af bd b2 84 95 bc 4c ff 92 3d
       0.10389526 -0.08590665 -0.01825175 0.071776
000340 12 df bb be 51 ff a0 3e f4 a7 48 3e 68 dd f0 be
       -0.36693627 0.3144479 0.19595319 -0.4704392
000350 95 c7 4b 3e 86 24 0a 3e 7f 14 c6 bd 66 62 3f 3d
       0.19900353 0.13490495 -0.09671878 0.0467247
000360 a7 bd 25 3d ec b3 e9 3c 3e a9 13 bc 87 5a 04 3d
       0.04046407 0.028528176 -0.009012518 0.032312896
000370 ea 61 fc bb 9e 0b af bd b3 52 ca bc 17 7b 04 bb
       -0.007702102 -0.08547138 -0.024697637 -0.0020214969
000380 1b 09 03 3d 3c 8b a1 3c 9d 96 92 3d aa 0e 67 3d
       0.031991106 0.019719712 0.071576335 0.05641047
000390 9b 53 9b 3d 35 2d 84 3c b8 b6 d3 bd 7c d3 55 bd
       0.07584306 0.016134838 -0.10337585 -0.05220364
0003a0 89 f2 d8 bd 16 1e 9d bd b7 5c 8d 3e 47 ba 97 3e
       -0.10593135 -0.07671754 0.27609798 0.29634306
0003b0 07 90 80 3e 25 5c 76 3e 4d be a8 3d 30 0b f8 bd
       0.25109884 0.24058588 0.08239422 -0.12111509
0003c0 ec e0 35 be 8f 42 b5 be af 5a d8 be 8e dc 48 3e
       -0.17761582 -0.35402343 -0.42256686 0.19615385
0003d0 ba a7 09 3e d2 e5 30 3e 44 25 37 3e ca 5d 2e 3e
       0.13442889 0.1727517 0.1788531 0.17027965
0003e0 7a 78 08 3e 64 ac 57 3e fd 21 44 3e d3 99 03 3e
       0.13327208 0.21061856 0.1915359 0.12851648
0003f0 ba f1 65 bd 91 61 f9 bd da 3a 78 bd 0d 88 c1 bd
       -0.05613873 -0.121768124 -0.060603 -0.09449778

conv1.bias f4 [20]
000000 42 f9 a6 3e ca 48 9c 3a 08 56 27 3c 2c ae 6c 3e
       0.32612044 0.0011923548 0.010213383 0.23113316
000010 1b 31 05 bd c9 42 25 3e e7 ef 29 bd 54 26 81 bd
       -0.032517534 0.16138758 -0.041488554 -0.06306139
000020 1e ce 27 3e 7b 90 46 3e 34 20 28 3e 05 82 6b 3d
       0.16387221 0.19391052 0.16418535 0.057497043
000030 e7 f7 17 3e d7 8a 77 3e 3e 63 50 3c e3 81 72 3e
       0.14840661 0.24174057 0.012718974 0.2368236
000040 32 9f 33 3c 4e aa 1e bd ae 92 87 3e 23 17 0f 3b
       0.010963248 -0.038736634 0.26479095 0.002183386

conv2.weight f4 [40, 20, 3, 3]
000000 fb 83 ad 3c e6 c5 03 bd f0 f5 36 3b c5 b9 79 3c
       0.021181097 -0.032171153 0.0027917586 0.015242045
000010 84 54 8e bc 40 e7 5d 3c a4 15 c8 3c 4e 0f 19 3d
       -0.017374285 0.013543904 0.024424382 0.03736811
000020 6d 5c e4 3d b0 a6 27 3d 29 ad 1e 3c 2e 5a f8 3c
       0.11150441 0.04093045 0.009684839 0.030316439
000030 3e 78 85 3d b6 3b bf 3c 8d 7e 65 3d ae 23 d9 bc
       0.06517075 0.023343902 0.05602889 -0.026506271
000040 ae d0 b4 3b a7 fa ab 3c ff e3 64 3d 82 a3 ca bc
       0.0055180406 0.020993544 0.055881497 -0.02473617
000050 53 be 31 3d b1 80 85 3d 45 ac 29 3c 06 5b 7b 39
       0.043394398 0.065186866 0.010356014 0.00023971134
000060 ab 02 3b 3d 95 41 de 3c 01 8c 29 3d f5 54 2c 3d
       0.04565684 0.027130881 0.041393284 0.04207321
000070 c5 6b 14 bd 62 f5 62 3c c5 eb 82 3d 29 77 18 bd
       -0.03623559 0.013852449 0.06392626 -0.037223015
000080 21 ff 45 bd ad 37 e8 3c dd 53 00 3d c6 99 2c 3d
       -0.048339013 0.02834686 0.03132998 0.042138837
000090 ca 18 cd 3c 90 fd cc bb 42 a8 8b bc 56 92 54 3d
       0.025036234 -0.006255813 -0.017048005 0.05189737
0000a0 ff d1 86 3c 91 10 aa bc 92 24 f9 3c 27 93 8e 3c
       0.016457556 -0.020759853 0.030412946 0.017404152
0000b0 a3 b0 2d 3d d8 3c 59 bd 40 2d b8 bd c2 44 9b bd
       0.042404782 -0.05303654 -0.08993006 -0.07581474
0000c0 d6 a8 f2 3c c5 83 32 ba 22 39 78 bd c1 b6 a3 bc
       0.029621523 -0.00068097963 -0.06060136 -0.019984605
0000d0 f7 5a b5 bc f9 27 e8 bc 12 3d 15 3c f7 a5 ff 3b
       -0.022138102 -0.028339373 0.009108799 0.007801767
0000e0 fa 07 1c 3d 3b 6d 2d bc 23 16 33 bc 58 d0 38 3c
       0.038093545 -0.010585125 -0.010930571 0.011280142
0000f0 3b 36 38 bc 1d ab 53 bd 6a 1d ee 3b 7e 03 8f 3c
       -0.011243398 -0.05167686 0.00726669 0.01745772
000100 a6 6d aa bb 0b ec bb 3c f3 1e a9 3c e4 27 d6 bc
       -0.0052010594 0.022939702 0.02064464 -0.026142068
000110 1a 06 22 bc 5e 72 07 bc e4 fc 34 3d bb 53 2a 3d
       -0.00988915 -0.008267013 0.044186488 0.041583758
000120 5f ac 03 be 88 95 ef bd 80 d7 63 bc 97 46 29 bd
       -0.12858723 -0.11698443 -0.01390636 -0.041327085
000130 36 bf b2 bd 8a 9f f3 bd 76 fc af 3c 12 2b 86 bd
       -0.08727877 -0.11895664 0.021482687 -0.06551184
000140 35 f9 0f be 8c 80 2e bd 40 9d cd bd 9c 33 e3 bd
       -0.14059909 -0.04260306 -0.10039759 -0.11093828
000150 91 f3 85 3d e4 8e 73 bb 35 d9 b6 bc 73 e2 df 3d
       0.06540597 -0.0037164027 -0.02232037 0.10931864
000160 28 96 c7 3d f6 89 28 3d 29 37 7d bc 0c ff 81 bd
       0.09745437 0.041147195 -0.015455046 -0.063474745
000170 6f 68 a6 bd 48 6c 0c bd dc 45 c8 3a da a6 b2 bd
       -0.08125388 -0.034282953 0.0015279609 -0.08723231
000180 3a 29 a7 3c fd 33 4b 3d 90 e2 62 3c 0f c5 01 be
       0.0204054 0.049610127 0.013847962 -0.12672828
000190 e3 12 ef bd 8b 6b d1 bd 36 4e ad bd fa 47 ab bd
       -0.11673524 -0.1022559 -0.08462183 -0.08363338
0001a0 9e 63 f9 bd 20 c9 bc 3c a3 34 4b bc 28 79 66 bd
       -0.121772036 0.023045123 -0.012402686 -0.056267887
0001b0 77 37 88 bb 59 99 95 bd e4 6b d3 bd 29 e3 0a 3d
       -0.0041570025 -0.07304639 -0.10323313 0.033908043
0001c0 8b 6e 63 3b ca 39 9d bc b7 ed 74 3d 5d 53 45 3d
       0.003470334 -0.019192595 0.059797015 0.048175205
0001d0 b2 26 b0 3d 23 e0 5b 3d 32 75 05 bd e4 8e 92 bd
       0.086011305 0.05368055 -0.03258247 -0.071561605
0001e0 af 80 b2 3d 8d 2b c6 3b f9 68 c0 bc cd 67 d5 3d
       0.08715951 0.006047672 -0.023487555 0.10420189
0001f0 b0 75 51 3d 0b 97 81 3b ed b8 bb bd 69 aa c8 bd
       0.051137626 0.0039547733 -0.09166131 -0.09798128
000200 df 5c 18 bd 2b 7d c0 bc 3b 47 1c bd a2 ae 91 bd
       -0.037197944 -0.023497185 -0.03815387 -0.07113387
000210 95 87 e0 3c 58 87 d3 3b 5b e4 44 bd 5b d9 fc 3d
       0.0274084 0.006455343 -0.04806934 0.12346145
000220 4a a1 f8 3b 4b d3 85 3b fa 15 00 3e ce 10 83 3d
       0.0075875865 0.004084026 0.12508383 0.063996896
000230 78 44 03 bd dc d1 3c 3d 9f 15 d0 3d 11 ac a6 3d
       -0.03204772 0.046098575 0.10160374 0.08138288
000240 51 2a 4c bd e4 69 32 bd 45 dc fd bc 53 30 e1 3b
       -0.049845044 -0.043558016 -0.030988822 0.006872216
000250 7f 01 40 bc 14 b9 a6 bd 2d 4b 1b 3d 7b 9a 4d 3d
       -0.011719107 -0.081407696 0.03791349 0.050196152
000260 bc 5d 12 3d 40 8e 44 3d 7d 22 b0 3d 24 a0 fc 3d
       0.035733923 0.047987223 0.08600328 0.12335232
000270 c7 2c 81 bd ea 14 f0 bc 93 67 32 3d 51 c1 88 bd
       -0.06307369 -0.029306848 0.043555807 -0.06677497
000280 dd 28 c8 bd 0e 92 16 bd fc 73 40 bc 56 ce 04 bb
       -0.09773419 -0.036760382 -0.011746403 -0.0020264587
000290 82 b1 7c bc 35 53 0b 3d 2b df 0d bb 3e 7f 4e bc
       -0.015423181 0.0340149 -0.002164791 -0.012603579
0002a0 49 e6 7c 3d ce 70 99 3c 36 db fd bc 9b 00 32 3d
       0.061743055 0.018730547 -0.030988317 0.04345761
0002b0 71 70 b2 bc c2 e2 db bb fc 00 85 bb cf 01 b5 bc
       -0.021782132 -0.0067103812 -0.0040589552 -0.022095589
0002c0 db 3c 03 bd 6e 48 6d 3c 92 ea 35 3c 6f b8 35 3c
       -0.03204046 0.014482601 0.011103289 0.011091336
0002d0 6f 2a 97 3a bd 13 ca bc 72 a1 67 bd 68 bb 2d 3c
       0.0011533032 -0.024667615 -0.05655045 0.010603763
0002e0 f6 4c 04 bd a9 ab 82 bd c9 21 c2 bc 9a 6e 99 bc
       -0.03229996 -0.06380398 -0.02369775 -0.018729497
0002f0 ee 0b 69 bd 10 28 48 3d 0d 7d 0b 3d ec 50 21 3d
       -0.056896143 0.04886633 0.034054805 0.039383814
000300 18 ed 88 3d a8 3f 8b 3d ad 5b 1b 3d e2 78 d1 3d
       0.06685847 0.06799251 0.037929226 0.10228135
000310 4f 71 d2 3d 5b 98 3e 3d 3c a6 a4 bb d2 5c 00 3d
       0.10275518 0.046532016 -0.0050246995 0.03133852
000320 b9 36 2c 3b c1 ff 1f bd b9 31 9c bc c0 e9 b2 bb
       0.0026277734 -0.039062265 -0.019066678 -0.005459994
000330 0d 42 34 bd b7 ba cd bc 6f e5 dd bb 93 65 bd bd
       -0.044008303 -0.025113447 -0.0067717354 -0.09247889
000340 c5 67 a6 bd 07 dd b7 bd 7b bb 8f bc 1a 86 ee bc
       -0.08125261 -0.089777045 -0.017545452 -0.029116679
000350 c7 36 f1 bc 9b 71 f8 bc 38 32 b1 3b 02 18 86 3a
       -0.029445065 -0.030327609 0.005407598 0.0010230544
000360 2c 6e cf 3c 3e 06 50 3d 5a 76 21 3d 04 bd 76 3b
       0.025321089 0.050787203 0.03941951 0.0037649283
000370 76 2d 58 3d 11 98 85 3d 18 a6 df bc b2 72 5c 3c
       0.05277773 0.06523145 -0.02730088 0.01345508
000380 0d 87 04 3d 74 1c e7 bc 20 f4 72 bd d7 f1 e1 bb
       0.032355357 -0.02821181 -0.059314847 -0.0068952846
000390 ef 50 04 bc 1f 37 3a bd 37 a9 bc bb 39 96 68 bd
       -0.008075937 -0.045462724 -0.0057574767 -0.05678389
0003a0 a1 c5 b3 bc 6f ee d7 bc 75 c9 eb bc 9c 9c 78 ba
       -0.021944823 -0.026358811 -0.028782586 -0.0009483786
0003b0 5e e0 00 bc da 07 bb 3b 37 96 ba bb db c3 82 bc
       -0.007865993 0.005707723 -0.0056941765 -0.015962532
0003c0 2b 97 3f 3c 81 de 68 3c 1b 74 d8 3b eb a6 9d bc
       0.011693756 0.014213205 0.0066056377 -0.019244632
0003d0 bf 62 b2 bc 5b dd bc 3c 07 1e f2 bc 1d 06 14 bd
       -0.021775601 0.02305477 -0.029555334 -0.036138643
0003e0 a9 24 1f bc 8e e6 bc bc 89 36 68 bb 5e ea c4 bc
       -0.00971333 -0.023059156 -0.0035432896 -0.024037536
0003f0 e4 61 d6 bd 51 4a b5 bd 41 0c 99 bd 27 eb e1 bc
       -0.1046789 -0.08852065 -0.0747304 -0.02757795

conv2.bias f4 [40]
000000 43 7c 83 3d f2 5e c3 3d a4 32 b1 bd 55 2e 0a 3d
       0.064201854 0.09539594 -0.08652237 0.033735592
000010 39 44 39 3e 3f 93 6e 3e d8 96 14 bd be 05 06 3e
       0.18092431 0.23298357 -0.03627667 0.13088128
000020 43 2d db 3d 32 a1 e5 3e d5 13 b0 3d af eb 50 3e
       0.10701992 0.44849545 0.08597533 0.20402406
000030 b8 70 c8 3d 5c 57 c4 3c b3 ad 46 3e a0 5f 13 3e
       0.097871244 0.023967437 0.19402198 0.14391947
000040 03 1d 2b 3e 1f b5 30 3e ed e0 af 3d 3f b4 09 3e
       0.16710286 0.17256592 0.08587823 0.13447665
000050 6f c6 6a 3e 88 12 1f 3e ba 44 a5 bc fa 53 fb 3d
       0.22927259 0.15534413 -0.020174373 0.12271877
000060 18 82 4b 3e 2f b8 80 bd 2b dc ab 3d 90 ad 0a 3c
       0.19873846 -0.0628513 0.08391603 0.008464232
000070 0c c7 a1 bd 22 0a 7d 3d 46 f7 2b 3e 17 df 5c 3e
       -0.07899293 0.06177724 0.16793546 0.21569477
000080 ca 13 43 3e 1a 82 4a 3e 71 ca d8 3d f8 5f 42 3e
       0.19050518 0.19776192 0.10585488 0.18981922
000090 d3 86 a9 bc 04 d0 23 3e 95 0e ba 3c bf e8 91 3c
       -0.020694172 0.1599732 0.022712031 0.017811177

conv3.weight f4 [70, 40, 2, 2]
000000 10 51 43 3d 53 b1 d7 3c 06 91 ac 3c b5 54 9a 3b
       0.04768473 0.026329672 0.021065246 0.004709805
000010 8e 8c 35 3c 1e 7a db bc db fd e1 bc dc 22 31 bd
       0.011080874 -0.026791628 -0.027586868 -0.043246135
000020 cb be 7e 3d 52 66 55 3d 88 cf 5a 3d 20 29 e9 3c
       0.062193673 0.052099533 0.053420573 0.028461993
000030 0b a7 77 bc bd e6 9b bc 00 3f 9f 3d ce 34 9c 3c
       -0.01511551 -0.019030923 0.07775688 0.019068148
000040 66 64 47 3c cb 2c c3 3c 88 d2 b5 3c c7 0e a2 3a
       0.012169933 0.02382507 0.022195116 0.0012364023
000050 49 ad 55 3c 08 bb 0a bb b3 5b 4b 3d cb 1e ad bc
       0.013041803 -0.0021168608 0.049647998 -0.021132847
000060 d1 0e dc 3b a7 e2 98 bd d3 05 52 3d 87 60 bd bc
       0.0067156334 -0.074651055 0.051275086 -0.023117317
000070 78 c4 31 3c 94 3a 87 3c e4 5b a4 bc 15 c2 10 3c
       0.010850064 0.016507424 -0.020063348 0.008835335
000080 5e bf e2 bc 6a be 17 3c 5a bd 7a bc 84 d2 46 bc
       -0.027679142 0.009261707 -0.015303934 -0.012135152
000090 48 a8 13 be 02 1a 75 bc 28 9e 8c bd b2 f3 84 3b
       -0.14419663 -0.014959814 -0.068661034 0.004057371
0000a0 c1 36 e6 3b 5f bc e4 bc 5e 58 82 3a f3 77 0f bd
       0.00702557 -0.027921854 0.0009944548 -0.035026502
0000b0 1d 28 ad bb 7b 51 c2 bc d2 4c 7e 3c e6 3d a9 3a
       -0.005284323 -0.023720494 0.015521245 0.0012912124
0000c0 4a ee f3 bb 81 c8 f4 3b f6 30 90 bc c1 46 30 3b
       -0.0074441778 0.007470191 -0.017601471 0.0026897641
0000d0 c3 bc 25 bd 77 93 8a 3c e4 be 73 bc 76 08 0c 3d
       -0.04046322 0.01691602 -0.014877055 0.034187756
0000e0 ab 7d 4a 3b 50 ff 5f 3c 7d 6b af bc ac 2b f4 bc
       0.0030897658 0.013671711 -0.02141356 -0.02980598
0000f0 7f c9 8b bd 30 57 1b 3d fa 2c db bc d0 b0 50 3c
       -0.06825542 0.037924945 -0.026754845 0.012737468
000100 7e cc 31 3d f1 b1 b0 3d 94 c0 cc bc c3 85 c7 3c
       0.04340791 0.0862769 -0.024994172 0.024355775
000110 4a ed c7 bc b9 c0 8a 3d dd 5b b4 bc a6 9c 5c 3d
       -0.02440514 0.0677504 -0.02201646 0.05386033
000120 df f7 04 bd ea 04 1c bb d6 e5 2e 3d f0 fa 41 bc
       -0.03246295 -0.002380664 0.042699657 -0.011839613
000130 52 5f 48 bd 72 fd 39 bd db fd a4 3c 6c b9 75 3b
       -0.04891903 -0.04540772 0.020140579 0.0037494553
000140 79 17 53 bd 44 e0 06 3c ad 6c 22 3c 07 78 40 3d
       -0.051536057 0.00823218 0.009913606 0.046989467
000150 8b c0 b3 bb c1 89 40 3d 84 00 0a bd 86 5f 18 3c
       -0.0054855994 0.047006372 -0.033691898 0.009300118
000160 ca 58 01 3c b6 fb 6e 3c 96 e7 d3 3c c2 ec 50 3d
       0.007894704 0.01458638 0.025867265 0.05100704
000170 84 73 62 bc 72 05 d8 3a 9e bb 52 bd e0 e6 32 bb
       -0.013821486 0.0016481115 -0.051448457 -0.0027298257
000180 7e 1f 9b 3c d9 24 01 bc 22 34 37 bc 58 48 1c 3d
       0.018935915 -0.00788232 -0.011181863 0.03815493
000190 4c bf 9d 3c 65 99 c4 3c f8 b1 8d 3b e4 fc 67 3b
       0.019256257 0.023998925 0.004324194 0.0035398537
0001a0 72 83 14 bd 9b c2 c4 bd c3 0c 47 bd 9c 56 b5 bd
       -0.03625817 -0.096074305 -0.048596155 -0.0885441
0001b0 d7 76 91 3c db 0f 76 3d 23 d4 4a 3c 83 7b 99 3d
       0.017756863 0.060073715 0.012379679 0.07494261
0001c0 0a 86 62 b9 fe 4e 29 3d fd 74 4c 3b b7 d5 4b 3d
       -0.00021602973 0.0413351 0.003119766 0.04976436
0001d0 5b c0 c4 3a 1a 4d ba 3c cc 34 d9 3c bb bc 87 3c
       0.001501094 0.022741843 0.026514433 0.016569486
0001e0 aa 9d 83 3d ee e0 22 3c af 22 4e 3d 5f fd 95 3c
       0.064265564 0.009941323 0.050326046 0.018309293
0001f0 99 91 ad bc 84 be d7 3c ad 9f a1 bd 94 cd 24 bd
       -0.02118759 0.026335962 -0.07891784 -0.040235117
000200 ab e7 d3 3b 85 e6 0c 3c a4 24 1b 3d 5e 83 3a 3c
       0.006466826 0.008599882 0.03787674 0.011383859
000210 72 56 d5 3c 61 91 3f 3d 71 8d b7 bc 58 d7 47 3d
       0.026042197 0.046769504 -0.022406312 0.048789352
000220 05 5e 04 3d db 9a dd 3b e6 0c 85 ba d4 fe fd bc
       0.032316227 0.006762845 -0.0010150939 -0.0310053
000230 38 81 be bc 98 73 48 bc cc 24 fd bc b0 e2 bd bc
       -0.023254976 -0.012234591 -0.030901335 -0.023179382
000240 04 d7 b7 bc 7c a4 36 bc 74 5c 0f bd 7c 37 15 bd
       -0.022441395 -0.011147615 -0.03500028 -0.036429867
000250 2d cb 68 3d 0f 79 97 3c e6 38 20 3d 26 eb 8a bc
       0.05683439 0.018490342 0.039116763 -0.01695783
000260 87 ea 29 bc 77 59 57 3b 9e 58 d2 3c 6c 29 1f 3d
       -0.010370857 0.0032859722 0.025677022 0.038857862
000270 d0 47 0a bd 84 33 aa bc b7 c6 cd bc 3e 32 32 bb
       -0.033759892 -0.020776518 -0.025119169 -0.0027190591
000280 c6 1f 31 3d 0f c6 b7 3d e3 e1 d0 bb 85 04 46 3d
       0.043243192 0.089733236 -0.006374584 0.048344154
000290 23 bc 43 3d 3f d2 7c bc 14 40 06 3d f4 2c cc 3b
       0.047786843 -0.015430986 0.032775953 0.006230945
0002a0 52 78 e1 bc 67 db 0c bc 0a f3 7c bd cc e0 e2 bb
       -0.027523194 -0.0085972315 -0.061755218 -0.0069237705
0002b0 cd 1e 37 bc dc c5 4d bd 76 4d 2f 3c da 4b 00 bc
       -0.011176777 -0.05023752 0.0106996205 -0.007830584
0002c0 d7 da 2c 3c 01 77 ba 3c 22 34 c2 bc 32 d1 c8 3c
       0.010550222 0.022761824 -0.0237065 0.024513815
0002d0 b0 dc 56 3b 13 0a a1 3c 4f db 6a bc 39 80 92 3c
       0.0032785349 0.019658124 -0.014334514 0.017883407
0002e0 df f0 37 bd f2 36 a3 bd c9 10 dc 3b cc 04 b2 3b
       -0.044907447 -0.07969464 0.006715868 0.0054327007
0002f0 05 c3 3a 3c 51 6b dd bb ee 75 c1 bc 41 1b 96 bd
       0.011399035 -0.006757178 -0.023615804 -0.07329417
000300 c2 23 b9 bc 81 03 25 bc 9b b3 9e 3c 96 8f 2c bc
       -0.022600058 -0.010071636 0.019372752 -0.01053228
000310 03 53 91 3d 4c f5 a3 3b e8 f5 4b bd cd 5d bb 3c
       0.07095911 0.005003607 -0.04979506 0.022871876
000320 37 4a 15 bd 3d 13 9d ba ee ea 7f 3d 22 80 36 3d
       -0.03644773 -0.0011983883 0.062479906 0.04455579
000330 e5 37 e2 bc a8 b8 6c ba d2 f8 59 bc 64 f0 8f bb
       -0.027614543 -0.00090302015 -0.013303952 -0.0043926705
000340 7c ce f5 3b 4c 0f 1c 3c 6b 75 c8 3b ee 2c 19 3b
       0.0075014215 0.009525131 0.006117513 0.0023372727
000350 03 77 81 bc ce 92 4a bd 61 c0 ab bc 2a be 5d bd
       -0.01580382 -0.04945641 -0.020965757 -0.054136433
000360 5d 05 4b 3d ac 4a 27 bd 6e 45 c4 3c b6 b0 54 3c
       0.04956566 -0.040842697 0.023958888 0.012981584
000370 45 53 1b bd 45 9e df bd 9f 5f d5 3d 21 9f 7d 3d
       -0.03792121 -0.109188594 0.10418629 0.061919335
000380 5d 3d 97 bc 76 21 90 bc 1d bb 1f bc f9 7b c0 ba
       -0.018461877 -0.01759408 -0.009749201 -0.0014685384
000390 3b 50 22 3d 8c 49 32 3d 49 ec 94 bb 7a 54 83 3a
       0.039627295 0.04352717 -0.004544769 0.0010019683
0003a0 fd f4 2d bc c5 3d 84 bc 1c b7 dd 3b fe 47 ba 3c
       -0.010617492 -0.016142735 0.006766213 0.022739407
0003b0 77 25 ab 3b 29 5a 36 bc e0 6a 45 bc 14 95 4d bd
       0.005222972 -0.011129894 -0.012049407 -0.050191
0003c0 88 16 02 3e 8c 8b e4 3d ce 0f 12 bc 22 1c e2 3c
       0.12703907 0.11159429 -0.008914901 0.027601305
0003d0 42 c5 0c bd 92 d8 0d 3c d3 c8 5b 3b 86 48 af 3c
       -0.034367807 0.008657591 0.0033536449 0.021396887
0003e0 d8 44 a5 bc d4 50 13 bd 56 f8 4b 3c ff c6 8b 3c
       -0.020174429 -0.035965756 0.012449345 0.017062662
0003f0 45 d9 63 bd a9 58 d7 bc 0b b1 10 3d a2 01 be 3c
       -0.055627126 -0.026287394 0.03532509 0.023194138

conv3.bias f4 [70]
000000 f0 c8 aa 3d 8d 67 4a 3d 69 0c e0 be cf d8 bd 3d
       0.08339107 0.04941516 -0.43759468 0.092698686
000010 d2 5d c0 3c 5a 16 18 3e 47 93 f1 3d d8 51 a9 3e
       0.023482237 0.14852276 0.11795669 0.33070254
000020 ac 3c 7a 3d 08 d8 37 3e 2c 04 38 bd 1e 42 46 3e
       0.061093017 0.17953503 -0.044925854 0.19361159
000030 ba a2 69 3c c3 73 84 3b a3 b5 fc be 4e cb 81 3e
       0.014259988 0.00404212 -0.49357328 0.25350422
000040 7b 82 4a 3e 78 2b 8b 3d 42 2b 71 3e b6 87 39 3f
       0.19776337 0.067954004 0.23551658 0.72472703
000050 40 75 6b 3e 41 8f 13 3f 9a ed 2f 3e 62 38 5c 3e
       0.22993946 0.57640463 0.17180482 0.21505883
000060 f9 c4 2f bf 88 61 e3 3d 13 2e c7 3c 54 93 a4 3e
       -0.6865993 0.11102587 0.024313962 0.32143652
000070 fe d3 b5 3d 8a 89 3f 3e 78 de a7 3e f6 df 0b 3e
       0.08878325 0.1870481 0.32786918 0.13659653
000080 f6 0d ac 3c f8 7d 8e 3d 81 22 77 3e b9 db ed 3d
       0.02100275 0.069576204 0.24134256 0.116141744
000090 26 92 7c 3e ec 97 91 3e 94 6d a2 3e 23 3f 12 3f
       0.24665126 0.2843622 0.31724226 0.5712759
0000a0 4e 3e 7b 3e b7 5b 05 3e 0f 33 a0 3e 52 6e fa 3d
       0.24535486 0.13023268 0.31288955 0.12228073
0000b0 99 9a 00 be 3f a8 14 3e a3 8d 89 3e 73 0e 9a 3d
       -0.12558974 0.14517306 0.26865873 0.07522287
0000c0 dc 68 24 3d 27 3a 5e 3d cf c3 0e 3d c0 3c f6 3d
       0.040139064 0.054254677 0.034854706 0.12023306
0000d0 0f e8 e8 3e 5b 4b 7d 3e 5e 23 0f 3e a0 3f 2a 3f
       0.45489547 0.24735777 0.13978335 0.66503334
0000e0 2a 3c bc 3d e2 45 b6 3e c1 b4 a7 3e fa d3 8f 3e
       0.09191163 0.3560019 0.32755092 0.28091413
0000f0 50 1b 86 3e a0 32 4e 3d fd d1 58 3e 37 cb e5 3d
       0.26192713 0.05034125 0.21173854 0.11220401
000100 e3 dd e2 3e f2 24 b6 3d fe 48 62 3e 41 4b ed 3d
       0.4430991 0.088937655 0.22098157 0.11586619
000110 cd a3 17 3e 50 10 f8 3d
       0.14808579 0.12112486

fc.weight f4 [140, 630]
000000 81 50 b1 3c 28 c2 f9 3c 42 97 ca 3b d0 1c 0c bb
       0.021644833 0.030488089 0.006182582 -0.0021379478
000010 fc a4 b5 3c a1 68 a1 3c 49 06 2e bd 04 d5 46 bc
       0.022173397 0.019703211 -0.042486463 -0.012135748
000020 65 d7 83 3c bd ef 4c 3c 91 0c 59 bb 49 b1 da ba
       0.016093919 0.01250833 -0.0033119062 -0.0016684915
000030 d6 dd 03 3b 91 90 0a 3d 6b 5e 80 3c 0a da a1 3c
       0.0020121238 0.033829276 0.015670022 0.01975729
000040 1e 64 99 3b fe 33 15 3c 8c da a4 bc 45 4d cf 3b
       0.0046811244 0.009106634 -0.020123743 0.00632635
000050 1b 37 09 3c 68 8b 6a bd 34 fc 7d 3c b1 cb 7c 3b
       0.008374955 -0.057261854 0.015502024 0.0038573558
000060 5b 2a 88 bc d9 a8 0e bc 26 93 2d bc 56 73 00 bb
       -0.01662176 -0.008707249 -0.010594165 -0.0019599996
000070 30 ed 0f bb d7 61 34 3b 9f 3a 7d bb a5 dd cc bb
       -0.0021961443 0.0027524137 -0.0038639677 -0.006252008
000080 56 f5 88 bb 4e 7c c7 bb c4 c2 8e 3a be 95 41 3b
       -0.004179637 -0.0060878163 0.0010891785 0.0029538716
000090 d3 85 a1 bc 99 07 a9 3b 3c 43 e6 bc bd df 06 bd
       -0.019717133 0.0051583764 -0.028108232 -0.032928217
0000a0 67 60 8e 3c 47 ba ad 3b 64 56 3c bd 99 28 1c bc
       0.017379953 0.005301747 -0.045980826 -0.009531164
0000b0 e9 3b f9 b8 f3 2c 54 3c 9c d1 87 3c 6a ca 22 3d
       -0.000118844044 0.01295017 0.016579442 0.03974382
0000c0 6d 4e 6a 3c a9 90 71 3c 6c 60 61 bc a9 da a1 3c
       0.014300925 0.014743962 -0.013755899 0.019757586
0000d0 27 7b 45 3b 58 1e f0 bb 80 e6 61 bc d3 aa 1e bb
       0.003013322 -0.007327836 -0.013787866 -0.0024210706
0000e0 21 49 20 bc be 6c e1 3b a1 c6 fc 3a 5c f0 df 3b
       -0.00978306 0.006879418 0.001928527 0.006834073
0000f0 77 55 fc 3a a9 ea 2c bc 0f 31 f4 bc 3e 5f d0 bc
       0.0019251545 -0.010553994 -0.02980855 -0.02543604
000100 8c 7e 0d 3d a2 7d 81 3b 00 81 9e bc f7 13 4f 3c
       0.034544513 0.003951744 -0.019348621 0.012639037
000110 38 0b 7d 3c 06 9a 5e bb 5f 1f 56 bc 0b 15 50 39
       0.015444569 -0.0033966317 -0.013069003 0.00019844265
000120 52 f9 99 3c f0 34 cc bc c9 96 08 bd 43 53 27 3c
       0.018795643 -0.024927586 -0.033346925 0.010212722
000130 f1 e2 ae bc 83 a1 9c bc d4 ef 05 3c 89 fa 40 3d
       -0.021348448 -0.019119984 0.008174855 0.04711393
000140 01 c7 8d 3c 7f 89 78 3a 1e 44 9f b9 c9 aa ec bb
       0.017306807 0.0009480938 -0.00030377595 -0.0072225076
000150 6a ed 49 3a e0 59 f8 b9 76 94 41 bc 85 d6 6e 3b
       0.0007702919 -0.00047369208 -0.011815181 0.0036443782
000160 e1 65 2c bc 56 a7 1e bb 95 e4 b5 3c a3 9a 53 3c
       -0.010522337 -0.0024208627 0.022203723 0.012915286
000170 f8 7f 8d 3c 7d 85 68 3c 74 79 96 3b 74 cc c9 3c
       0.017272934 0.014191982 0.004592115 0.024633624
000180 21 f6 e7 bc 19 fa cb bc 8a af 5c 3c f2 a0 ba 3c
       -0.028315606 -0.02489953 0.013469586 0.022781823
000190 a2 4b 15 3c 92 ff a6 bc 19 aa 49 3d 9b be 8f 3c
       0.009112271 -0.020385537 0.049234483 0.017546942
0001a0 fa 1e eb bc da c9 df 3c ed dd 6f 3c d4 5e 9c bb
       -0.028701294 0.02731793 0.014640314 -0.0047720466
0001b0 fc fd f4 3c 6b 05 f0 3b da c9 17 3c c2 4e 47 3c
       0.029906265 0.0073248646 0.009264434 0.012164773
0001c0 08 13 28 ba 15 14 ee 3b a0 90 bc 3c 12 81 1f 3c
       -0.0006411527 0.0072655776 0.023018181 0.009735363
0001d0 8f a8 ec 3b 6d 1f d8 3c 50 35 b1 3c a0 24 06 bc
       0.007222242 0.026382172 0.021631867 -0.008187443
0001e0 bc 4c 9a 3c 0b 90 b2 3c 4d 8f cb bc f5 94 12 bd
       0.018835418 0.0217972 -0.024848605 -0.035786588
0001f0 43 52 a6 bb 19 b5 98 bc b1 73 0a bc 46 c0 e3 3c
       -0.0050757243 -0.018641042 -0.008450435 0.027801644
000200 dd 22 69 bc 36 05 75 bc 20 3a 34 3c 05 68 95 bc
       -0.014229503 -0.014954856 0.011000186 -0.018238077
000210 14 b2 52 bd c3 54 00 3c 29 2b 73 3b 3f c7 fd b9
       -0.05143936 0.007832709 0.0037104583 -0.0004840437
000220 43 c3 22 3c 65 46 a6 3c 64 e8 46 3c a6 da 6b 3b
       0.009934249 0.020297239 0.012140367 0.003598848
000230 44 b5 6a bb 94 ff ff 3c fe 57 86 3c e5 e1 67 3c
       -0.003581361 0.031249799 0.01639938 0.014152979
000240 19 05 f3 bb 4e 2d b3 bb 89 10 4a bc 77 45 58 bc
       -0.007416379 -0.005468047 -0.012333044 -0.013200155
000250 75 f0 3e bb 9f 11 d7 bc 99 4f 0a bd d2 17 e7 bc
       -0.0029135023 -0.02625352 -0.033767316 -0.0282096
000260 d6 c9 bf bc f1 82 22 3c cd f2 f7 3b 96 90 44 bc
       -0.023411673 0.009918914 0.007566786 -0.011997363
000270 f4 e6 b8 bb 62 e5 f2 bb 64 31 98 bc 7e cf 43 3c
       -0.005642766 -0.0074125985 -0.018578239 0.011951325
000280 ad b8 c4 bc 47 cc 5f bc f2 49 a2 3c 1f 5a 10 bb
       -0.024013842 -0.013659543 0.01981065 -0.0022026373
000290 15 8f 13 bc 4f a0 75 3c 53 37 c6 ba 7a d9 89 bc
       -0.009006281 0.014991834 -0.0015122689 -0.016827334
0002a0 18 a4 17 3d 17 64 b3 b9 d4 eb ea ba 83 a5 a7 bc
       0.037021726 -0.00034216113 -0.0017923065 -0.020464664
0002b0 fa e0 6a 3c ed e1 60 3c cd 62 ba 3b 99 da c8 3b
       0.014335865 0.01372574 0.0056880475 0.0061295745
0002c0 0a fd 0d 3d bf 89 31 3b 61 ba ed bc 1e b0 64 bb
       0.034665145 0.002709016 -0.029019536 -0.0034895013
0002d0 11 bc 26 bc e4 d8 b7 bb d4 19 5d bc 68 96 61 bc
       -0.010176674 -0.005610572 -0.013494927 -0.01376877
0002e0 5d db 4b bc 10 f8 3b bc 0f 85 50 3c c5 88 c8 3c
       -0.012442437 -0.011472717 0.012727036 0.02447928
0002f0 7a 83 d2 bb 24 34 85 bc e2 57 02 3c dc 18 b3 3c
       -0.0064243646 -0.016260214 0.007955523 0.02186244
000300 12 8b dd bc 11 9f ff bc ad 96 f9 3c e0 6f 2e 3d
       -0.027043853 -0.031203778 0.030467356 0.04258716
000310 4a 01 b0 bc d0 f8 52 3a cd c7 3a 3d 88 f5 cf bc
       -0.02148499 0.000804794 0.0456007 -0.025385633
000320 e5 89 bd bb ee 69 b4 3c ea be 6e bc 5b 94 66 bc
       -0.0057842606 0.022023167 -0.014571885 -0.014073457
000330 0d 4e bc 3c 27 11 ff 3c 8d 6c 59 3c 7a 49 e7 bb
       0.022986436 0.031136109 0.013270509 -0.0070583196
000340 5c fd 67 b8 47 74 47 3c fb ed d5 3b 4d 4a 9a 3c
       -5.531065e-05 0.012173719 0.0065286136 0.018834257
000350 c8 15 c7 3c 79 75 bd ba 53 36 6d 3c 46 20 29 3c
       0.024302378 -0.0014454565 0.014478284 0.010322636
000360 77 33 42 3c 67 b8 c1 bc 96 f6 b7 3c 7e 12 b6 bc
       0.0118530905 -0.0236475 0.022456449 -0.022225615
000370 dc f8 40 bd cd b8 bf bb 1a 22 05 3c fb 5e 75 bc
       -0.04711233 -0.0058508874 0.008125806 -0.014976258
000380 d8 da 1b bd f5 99 81 bc 19 ad 6c b9 25 48 85 bc
       -0.038050503 -0.015820483 -0.00022571198 -0.016269753
000390 70 f1 9e bc ee 15 b2 bc 11 04 8d bc e1 1a 1d bd
       -0.019402236 -0.021738973 -0.017213853 -0.03835571
0003a0 36 a2 28 bd f6 e8 42 bc 87 c8 15 bd e7 4e 56 bc
       -0.04117032 -0.0118963625 -0.03656819 -0.013080335
0003b0 1c 9b e4 bc 17 0c a4 bc 6e 05 8b 3b 09 af 50 bc
       -0.027905993 -0.020025296 0.0042425906 -0.012737044
0003c0 48 84 fb bc 15 bd d0 3b ea 27 b3 3a da bd da bc
       -0.030702725 0.0063701966 0.0013668512 -0.026701856
0003d0 81 14 36 bc ff 77 fc bc c2 5b 95 bc b5 d8 0a bd
       -0.011113287 -0.030818937 -0.01823223 -0.033898074
0003e0 35 e4 c6 bc f8 30 c4 b9 31 ec 55 3b 7e d6 9f bc
       -0.02427874 -0.00037420518 0.0032642002 -0.019511458
0003f0 20 71 05 3b be df 4c 3c ed 85 4e 3c 3a 85 2b 3c
       0.0020361617 0.012504516 0.012605173 0.010468775

fc.bias f4 [140]
000000 a9 48 4d 3e db 25 97 3e d8 7f 60 3e 27 9a b1 3e
       0.20047249 0.2952107 0.21923769 0.3468792
000010 de f9 92 3e 31 24 0b 3f e2 4b 84 3e d2 37 00 3f
       0.2870626 0.543521 0.25839144 0.50085175
000020 be 01 f1 3e 3c 25 c2 3e 48 45 0b 3f ec ae bc 3e
       0.47071642 0.37919033 0.5440259 0.36852205
000030 1f 58 f5 3e 30 b3 a6 3e b9 d8 a1 3e 0a 18 9d 3e
       0.47918794 0.32558584 0.3161066 0.30682403
000040 29 2b a8 3e c6 86 c1 3e 89 cb 8f 3e 0f 2a 5a 3e
       0.3284543 0.37798136 0.28084973 0.21305107
000050 d8 84 c6 3e d3 a0 2b 3e f9 40 71 3e a7 db 95 3e
       0.38773227 0.16760568 0.23559941 0.29269144
000060 df 1f 94 3e 28 02 10 3f ae 01 82 3e 38 31 44 3e
       0.28930566 0.5625329 0.25391906 0.191594
000070 e7 65 df 3e 9f 09 a5 3e a6 78 ae 3e 02 2a af 3e
       0.43632433 0.32233903 0.34076422 0.34211737
000080 65 cc 84 3e 6d e5 8a 3e 2b 05 81 3e 08 42 c1 3e
       0.2593719 0.27128163 0.25199255 0.3774569
000090 0d a5 79 3e 7c 75 78 3e 05 01 ab 3e bd e5 81 3e
       0.24379368 0.24263567 0.33399215 0.2537059
0000a0 b7 5b 99 3e 24 63 32 3e 98 fe a6 3e 0f d4 af 3e
       0.29952785 0.17420632 0.32616115 0.34341475
0000b0 0d 86 da 3e 87 f5 07 3f 51 8b 0e 3f 23 47 a1 3e
       0.42680398 0.5310902 0.5568133 0.31499586
0000c0 91 ec af 3e 6d a5 00 3f df b2 b1 3e b1 6d b4 3e
       0.34360173 0.5025242 0.3470678 0.35239938
0000d0 7e 91 10 3f c3 a3 b7 3d 38 c7 f1 3e a0 3a 0f 3e
       0.56472003 0.08966782 0.47222304 0.13987207
0000e0 f8 68 54 3e 9d 91 8d 3e 6a 43 83 3e 72 e1 91 3e
       0.20743167 0.27650157 0.2563737 0.28492314
0000f0 4e c2 8c 3e bc 82 83 3e 8d ab b0 3e c2 bc b5 3e
       0.27491993 0.2568568 0.34505883 0.35495573
000100 3c 98 4d 3e 15 4f 9e 3e 5d e4 5d 3e cd 42 d5 3e
       0.20077604 0.3091971 0.21669145 0.41652527
000110 e6 06 84 3e 2a 93 e9 3e 4f fa d5 3e 20 2e 91 3e
       0.25786513 0.4562009 0.41792533 0.28355503
000120 c8 fc 20 3e fb dd ba 3e c6 61 b2 3e d8 be 05 3f
       0.15721428 0.36497483 0.3484022 0.5224433
000130 d2 02 96 3e c3 ff af 3e d6 3b cc 3e 54 f3 93 3e
       0.29299027 0.34374818 0.398894 0.28896582
000140 52 d2 08 3e c8 f6 9e 3e c3 fa a2 3e d5 cf 81 3e
       0.13361481 0.31047654 0.3183194 0.25353876
000150 b0 5e 04 3e 02 c6 da 3c 43 35 4e 3e 8a 4a e6 3e
       0.12926745 0.026705746 0.20137505 0.44978744
000160 55 c7 8e 3e 32 f2 96 3e 4e 10 bc 3e 68 fb df 3e
       0.27886453 0.29481655 0.3673119 0.43746495
000170 65 84 76 3e b1 bc a4 3e 88 12 70 3e 53 cf 0e 3e
       0.24073942 0.3217521 0.23444569 0.13946275
000180 d5 71 c8 3d 81 09 56 3e 8b 8e 88 3e aa c9 6c 3e
       0.09787337 0.20902063 0.26671252 0.23123804
000190 96 8d b0 3e 5f be 85 3e d2 64 a2 3e 9c e1 f3 3e
       0.34483021 0.26121804 0.31717545 0.47633064
0001a0 52 72 bd 3e 2c 1f 8f 3e d0 fe 42 3e f3 97 52 3e
       0.37001282 0.2795347 0.19042516 0.20565777
0001b0 dc 9d 9d 3e 17 37 a2 3e b9 3d e1 3e 2b 8b c3 3e
       0.307845 0.31682655 0.43992403 0.38192114
0001c0 e4 dd 6d 3e 7d 80 69 3e 67 cc ad 3e 9b 43 d9 3e
       0.23229176 0.2280292 0.3394501 0.4243439
0001d0 8e ad 8a 3e dd 0e af 3d 26 bd c6 3e 84 51 ee 3e
       0.27085537 0.08547757 0.38816184 0.46546566
0001e0 a5 b5 70 3e 55 1f a2 3e 8f 4e 39 3e a5 10 8f 3e
       0.23506792 0.3166453 0.18096374 0.27942386
0001f0 e3 0a 8c 3e 73 f1 c5 3e 99 cb a0 3e 09 01 b4 3e
       0.27352056 0.38660774 0.31405333 0.3515704
000200 95 c1 8b 3e 45 d1 c9 3e 9e 1c b7 3e 2f 77 e4 3e
       0.2729613 0.39417472 0.3576402 0.4462218
000210 84 c7 ba 3e ea 7f ec 3e d6 45 8b 3e 70 e8 79 3e
       0.36480343 0.4619134 0.27201718 0.24405074
000220 b2 9e c3 3d aa f5 c7 3e 08 6f e5 3e 0f 38 c9 3e
       0.09551753 0.39054614 0.44811273 0.39300582

rotate.weight f4 [3, 140]
000000 3a 2b 1f bc ec fc b2 3e a0 41 2d bd a2 22 51 bc
       -0.009714896 0.3495859 -0.042298913 -0.012764605
000010 f4 05 1f bc 09 bc 36 bc 12 bd f2 bd 1f d8 6a bd
       -0.009706009 -0.0111532295 -0.118524686 -0.057335015
000020 0e bf 13 3d be 36 28 3d 1a f8 98 bb 3b a3 35 bb
       0.036070876 0.04106783 -0.004668248 -0.00277157
000030 88 69 08 be c4 d9 84 3d 60 42 f2 bd 2a e5 83 3c
       -0.13321507 0.06486848 -0.11829066 0.016100485
000040 57 e0 53 bc 7e 65 8b 3d 11 83 30 bc 66 24 e9 bb
       -0.012931905 0.068064675 -0.010773436 -0.0071149347
000050 a1 8b 57 bc 4f 47 aa 3d 24 a9 a1 bc d0 5b ba bb
       -0.013155849 0.08314382 -0.019733973 -0.0056872144
000060 9a 92 22 be c7 43 e3 3c 86 ff 8a 3c 4a 5a 2b bd
       -0.15876237 0.02774228 0.016967546 -0.041834153
000070 81 cf b1 bd 40 10 bc bd d7 7d 8b 3e 95 0a 65 bd
       -0.08682156 -0.09182787 0.27244446 -0.055918295
000080 f1 22 62 bd 32 2a d0 be 66 1c 51 3d 04 e5 da 3b
       -0.055209104 -0.40657192 0.051052473 0.006680133
000090 05 d5 58 bd 21 f4 41 bd da 2a 56 be cc ce 96 bc
       -0.052937526 -0.04735196 -0.20914784 -0.018409155
0000a0 a9 d8 b8 bd ba c9 dd bc 34 12 6c 3d e8 ce 33 be
       -0.090257 -0.02707373 0.057634547 -0.17559397
0000b0 22 85 b1 bd 65 8a 46 bb 22 b9 d0 3c ce 78 1d bc
       -0.08667971 -0.0030294892 0.025478903 -0.009611322
0000c0 df 46 85 bd 39 75 b4 3c fb 5a 43 be 2a 7c 73 bc
       -0.06507658 0.022028552 -0.19077675 -0.014861146
0000d0 90 1d af bd 58 ac 8f 3d 54 67 a1 3e 8f 35 9b 3d
       -0.085505605 0.07015294 0.31524146 0.07578575
0000e0 57 f8 a0 3d 2c 1e b8 3c c1 54 a6 bd 9a 4c 84 bd
       0.07859867 0.022475325 -0.08121634 -0.06459923
0000f0 43 c7 5f 3e 88 c4 c5 3e 38 7a 71 3b bf 05 a5 3d
       0.21853356 0.38626504 0.003684653 0.080577366
000100 2b b7 21 bd d7 de 33 be 87 d6 6c be e7 18 44 bd
       -0.039481323 -0.17565475 -0.2312871 -0.04787531
000110 ed 6d 67 3e 12 e3 3c 3d 40 94 c0 bb 96 31 87 bc
       0.22600527 0.04611499 -0.005877048 -0.016503137
000120 08 f0 0e be c2 4f bb bd ec 2e de bc b3 45 a3 bd
       -0.13958752 -0.09146072 -0.027121983 -0.079722784
000130 f2 9f 8a bd 31 79 ea 3d 45 6f b8 3c 0e 01 3a 3d
       -0.067687884 0.11448897 0.022513995 0.045411162
000140 90 11 b7 ba a3 72 3a bd 03 04 b2 3d 3e a6 8a 3e
       -0.0013967026 -0.045519482 0.086921714 0.27079958
000150 93 2c 18 be 38 71 e3 bc 17 81 be bc 18 f4 01 3b
       -0.14860754 -0.027763948 -0.023254914 0.001982933
000160 1f a5 33 be 62 aa a2 3e dc f2 ac be 51 39 bd 39
       -0.17543457 0.31770617 -0.33779037 0.00036091593
000170 4f 13 75 bd 4f bf c4 bd e7 49 66 be 3b 30 fb bd
       -0.059832867 -0.09606802 -0.22489129 -0.122650586
000180 45 92 b7 3d 6a b0 16 3e 57 5c c8 bd 69 b2 51 be
       0.089634456 0.14715734 -0.097832374 -0.20478214
000190 07 74 87 bc 91 b6 32 bb 5c 2e 5d 3d 16 c1 30 3e
       -0.016534818 -0.0027269463 0.05399929 0.17261156
0001a0 7a 85 c8 bc 66 48 1a bd f3 d4 0e 3c df b8 c0 bc
       -0.02447771 -0.0376667 0.008717763 -0.023525653
0001b0 cc 1a ac 3c ae 20 ce bc a7 be ae bc 73 f8 be 3c
       0.021008871 -0.025162067 -0.021331144 0.02331183
0001c0 17 cb dd bd cd dc 87 3c 47 e5 2a 3d 14 38 d2 3b
       -0.10829752 0.016584778 0.041722562 0.0064153764
0001d0 2b 00 ba 3c 6a 31 14 3c 82 cf 2c be 8a b4 a2 3e
       0.022705158 0.009044984 -0.16876033 0.31778365
0001e0 97 36 be bc 4a a2 28 3d b4 26 cc bc aa 96 02 bc
       -0.02321939 0.041170396 -0.024920799 -0.007970491
0001f0 41 c0 b2 3e c8 9c 27 bd 6c 59 38 3c cb 14 aa bd
       0.34912303 -0.040921003 0.011251789 -0.08304747
000200 a6 59 95 bb 2f 0c 17 3d 16 09 72 bc ec 23 1b bd
       -0.004557806 0.036876854 -0.014772674 -0.037876055
000210 33 b6 a6 3d da 8b a2 bc 90 fd a9 bc bf 98 46 be
       0.081402205 -0.019842077 -0.02075079 -0.19394206
000220 fe 50 19 3a 68 5c 2c be fc a3 db bc 28 87 3f 3d
       0.00058485556 -0.16832125 -0.026811592 0.046759754
000230 48 18 e1 bd a6 e3 d8 bd b5 f7 96 3d bb b4 74 3c
       -0.109909594 -0.105902955 0.07371465 0.014935668
000240 dc 55 24 3d 22 15 20 3d f7 6e 00 3d f2 b5 21 3c
       0.040120944 0.039082654 0.031355824 0.009870039
000250 6e 9a 34 bd 70 bf 8e 3e a1 5c 16 3d 51 86 49 3b
       -0.044092588 0.2788043 0.03670943 0.0030750225
000260 ec 61 8c 3e e6 96 e2 ba eb c0 3c 3e ea 41 70 bd
       0.27418458 -0.0017287403 0.18432967 -0.05865661
000270 f6 1a 91 3d b0 d4 b0 bd c1 b4 e0 3c aa 6e 27 bd
       0.070852205 -0.08634317 0.02742994 -0.04087702
000280 7c 27 92 3b 64 59 29 3e 7b 36 10 3e 44 ad 00 3d
       0.0044602733 0.16538006 0.14083283 0.03141524
000290 a9 8d 0a 3e 1e 9f a3 bc f3 37 2a 3d 97 a8 8e 3d
       0.13530602 -0.019973334 0.041557264 0.0696575
0002a0 a2 97 18 ba 4b df c0 3e 87 75 8f be 85 12 9c bd
       -0.0005820935 0.3767036 -0.28019354 -0.0762072
0002b0 94 66 d7 bd 26 90 49 3e 05 40 f8 bc 3e e1 09 bd
       -0.10517612 0.19683895 -0.030303964 -0.033662073
0002c0 c6 1a dd 3d 9a b8 19 3e 9f 2a 5a 3e 80 89 f4 3c
       0.10796122 0.15011826 0.21305321 0.029850721
0002d0 48 b7 22 3e 5b 62 5b 3c 11 0a 4f 3d 3a 67 15 3e
       0.15890229 0.013390149 0.05054671 0.14590159
0002e0 ee d6 d2 bc aa 0a 1b bd 57 ac 80 bc a8 53 f3 3c
       -0.025737252 -0.037851967 -0.015707178 0.029702976
0002f0 41 d9 bb bc e7 4c 5c bd 37 21 22 be 7c c5 f9 ba
       -0.022930743 -0.053784277 -0.15832983 -0.0019056047
000300 4f b5 14 3d 73 a9 a7 bd 93 10 6e bb 89 b6 99 bc
       0.03630572 -0.08186617 -0.0036325797 -0.018763797
000310 3a b7 bb bc bd 88 93 3e 40 c6 44 be da d2 ee 3d
       -0.022914518 0.2881526 -0.19216251 0.116613105
000320 3c 9c 09 be 3b 1c 8a be b2 b1 98 bd 1f 57 0d 3e
       -0.13438505 -0.26974663 -0.07455768 0.13802765
000330 82 13 ed 3d fd 39 4c be 98 07 bb 3e 0e 3b ff 3d
       0.115759864 -0.19943996 0.3652923 0.12462436
000340 c4 06 39 bd 51 0f 71 bc 8f d9 a6 bc e1 c6 27 3c
       -0.045172468 -0.014713124 -0.020367412 0.0102402875
000350 a6 a0 37 bd 95 bd 61 3e ad ee 2e bd 90 67 59 3d
       -0.04483094 0.22044976 -0.042708088 0.05307728
000360 0c e7 81 3c 43 0c 11 3c 52 90 64 bd eb bb 41 bd
       0.015857242 0.008853021 -0.055801697 -0.047298353
000370 96 6c c7 bc e8 e3 1c 3b 25 1f 29 bd a3 33 17 be
       -0.02434377 0.0023939554 -0.041289467 -0.14765792
000380 e0 5d 09 be f9 eb 99 3b 62 64 04 3c 92 14 42 3c
       -0.13414717 0.0046973196 0.008080574 0.011845725
000390 68 4c 5d 3e a1 a9 49 be 1e 98 bc bc da e5 a5 3c
       0.21611178 -0.19693615 -0.023021754 0.020251203
0003a0 27 89 09 3c 7f 87 82 3e e7 73 8e 3e df c8 a7 3e
       0.008394516 0.25494 0.278228 0.3277044
0003b0 b2 25 32 bd 1f 13 b9 3c 2f 66 74 3e 13 ba 79 be
       -0.04349298 0.022592125 0.23867105 -0.24387388
0003c0 1a 4b b3 ba e5 2a fd 3c 52 ac 4e bd e6 ba f1 bd
       -0.0013678998 0.030904243 -0.050457306 -0.11803226
0003d0 6e 70 05 3e bc 79 f6 3b b0 73 6f bd 8d e6 f7 3c
       0.1303117 0.007521836 -0.058459938 0.030261302
0003e0 01 0e 34 3d bd 57 12 3d c6 ad 8d bc 0d 2a 4c 3d
       0.043958668 0.035728205 -0.017294776 0.04984479
0003f0 d2 e6 00 3d ff 6e 50 bd 42 92 6a bc 22 84 2d bd
       0.031470127 -0.050887104 -0.014317097 -0.04236234

rotate.bias f4 [3]
000000 c8 29 d9 3d e8 ce 4b 3d 73 aa 13 3e
       0.10603672 0.049757868 0.1442049

cls_prob.weight f4 [2, 140]
000000 09 c4 65 be 07 e5 2c bd 95 77 9c bd 24 21 2a 3e
       -0.22438063 -0.042210605 -0.07639996 0.16614205
000010 df 1f 39 3e 2b 78 f8 3d 81 45 7d be f4 bc 5f 3e
       0.18078564 0.12132295 -0.24733545 0.21849424
000020 d7 75 5b 3e be 03 14 bc 79 20 40 3e 98 c0 39 3e
       0.21431671 -0.009034095 0.18762387 0.18139875
000030 e9 75 80 be 51 30 3c 3e 49 a4 8f be cb a3 3c 3e
       -0.25089958 0.18377806 -0.28055027 0.18421857
000040 75 9c 25 3e c8 9f 31 bc 92 7b d1 3c e6 4d 59 be
       0.16172965 -0.0108413175 0.025571618 -0.21221122
000050 ac 84 45 3e b8 49 1f be ba 4f 80 be 6a a6 d4 3d
       0.19288892 -0.15555465 -0.25060827 0.103833035
000060 47 32 57 be 87 e4 75 3e 57 97 1a 3e 87 87 48 be
       -0.21015273 0.24012958 0.15096794 -0.1958295
000070 47 02 25 3e ae ef cf bd d8 38 08 bc 9f e6 f7 3d
       0.1611415 -0.10153137 -0.008314334 0.12104534
000080 31 b3 9c 3d 82 37 2d bc 65 c1 31 3e 11 c0 47 3e
       0.076513655 -0.010572316 0.1735893 0.19506861
000090 05 2a 08 3d 24 1f 7e be 42 b1 e7 bd a5 ec fc bd
       0.033243198 -0.24816567 -0.11313106 -0.12349824
0000a0 4b 50 61 be bc 54 57 3b 34 1f 22 3d 01 80 9c be
       -0.22003286 0.0032856902 0.03958054 -0.3056641
0000b0 b1 25 cd bc f0 64 f5 3d 3f a1 82 3d ca 7c 3f 3e
       -0.025042387 0.11982143 0.063784115 0.18699947
0000c0 94 2c 26 3e 6e a3 85 3e ed 9a 7e be 30 42 2f 3e
       0.16227943 0.2610125 -0.24863787 0.17115092
0000d0 ac 08 a9 bb a9 72 a8 bd ef 4e 7a be 4b 8d fd 3c
       -0.0051585045 -0.08224995 -0.24444173 0.030951163
0000e0 10 9e d4 bd 66 86 82 3a 3e da 88 bc e3 f2 60 be
       -0.103817105 0.0009958267 -0.016705628 -0.21967654
0000f0 9f e4 be 3d 18 cc 28 be fe 5b 40 3e 38 b1 96 be
       0.0932095 -0.16484106 0.18785092 -0.29432082
000100 3a 87 54 bd d5 eb 35 bc ff 0b 1c bd de 87 11 3e
       -0.051886775 -0.01110359 -0.038097378 0.14211985
000110 b9 f8 4c be 64 10 1b 3d 74 ba e6 bc ae ac fc 3d
       -0.20016755 0.03785743 -0.02816508 0.123376235
000120 35 76 59 be 8b fc f4 3d 8d f4 29 3e 49 69 e7 3d
       -0.21236499 0.11962231 0.16597195 0.112993784
000130 5e 8a 28 3e 0a 4e f8 3d a5 f0 50 bd 5e 77 2c 3e
       0.16459033 0.1212426 -0.051010747 0.1684241
000140 04 54 d2 bc 06 7b 37 3e 07 65 1f 3e 6c bb 0c 3d
       -0.025674827 0.17918023 0.15565883 0.034358427
000150 88 b4 a9 3c 8c 37 2e bd ca 9e 05 bd a3 12 47 3e
       0.020715967 -0.042533442 -0.032622136 0.19440703
000160 8a 90 b5 3d 12 0e 52 3d fa 15 7b be d9 5b 5e 3e
       0.08865459 0.05128295 -0.24520102 0.21714725
000170 42 6b 62 be 1c 02 48 be a9 5c 6e be 9a 18 7c 3c
       -0.22111228 -0.19532055 -0.23277535 0.015386725
000180 2d 27 4d be c8 89 76 be aa 2b 67 be f9 e9 3d be
       -0.20034476 -0.24075997 -0.2257525 -0.18546285
000190 0a 6d 4e 3e c6 3a 20 3e f9 25 07 3e 32 ee 86 be
       0.20158783 0.1564742 0.13198079 -0.26353604
0001a0 a0 98 90 be d1 1a 3a 3e 7a fc 14 be 7d 96 11 3e
       -0.28241444 0.18174292 -0.14549437 0.14217563
0001b0 81 8a 3b 3e 82 94 15 3e aa 53 97 3d 05 58 09 3e
       0.18314554 0.14607432 0.073890045 0.13412483
0001c0 5f c6 7b be b6 bb 8d 3c c4 00 17 3e 1f 9e 7b be
       -0.24587391 0.017301422 0.14746386 -0.24572037
0001d0 91 44 ee bc 27 51 98 ba 7a fe 7d be fa ca 90 be
       -0.02908543 -0.0011620865 -0.24804106 -0.2827986
0001e0 91 75 bf 3d bf 34 f7 bc 11 0a 58 3d 0c 5d 29 3e
       0.09348596 -0.030176518 0.052743975 0.16539401
0001f0 1d ae 3a be ba 60 c5 3b 67 b3 e6 3d 81 80 32 3d
       -0.18230481 0.0060234936 0.11264687 0.043579582
000200 46 c1 ec 3d 3d 90 35 3e 06 7a 3a 3d 67 25 88 be
       0.115603015 0.17730804 0.045526527 -0.26591036
000210 7f 33 37 bc cd 86 44 3b 3c 87 2a bd 87 05 83 be
       -0.011181711 0.0029987574 -0.041632876 -0.25590155
000220 55 08 11 3c 62 56 a8 3d 6d dd 64 3e 60 27 af bd
       0.008852084 0.08219601 0.22350092 -0.08552432
000230 b3 b5 69 3e 62 e4 34 3d 1c 53 9e 3d 74 a1 23 be
       0.22823219 0.044163115 0.077306956 -0.15979558
000240 5a ca 3e be cd a0 fd bd 8c c6 72 3e 1e 32 68 be
       -0.18631878 -0.12384186 0.23708552 -0.22675368
000250 8f e7 5b be 90 ab a9 3b af 90 39 be 75 6f 58 be
       -0.21475051 0.0051779225 -0.18121599 -0.21136267
000260 90 0d 7e 3e d6 df 39 be e2 01 8b 3e d5 0a 2e be
       0.24809861 -0.18151793 0.27149874 -0.1699632
000270 76 06 1a be 9a 44 93 3c 35 f5 9e bc e7 3f 52 3e
       -0.15041527 0.017977048 -0.019404033 0.2053219
000280 f4 f4 54 be aa 74 20 3e 64 55 7e 3e de 43 c7 bd
       -0.20796567 0.15669504 0.24837261 -0.097297415
000290 7c 4a 53 3e 98 e2 75 be 18 9a 25 be f4 f9 44 3e
       0.20633882 -0.2401222 -0.16172063 0.19235975
0002a0 8b d4 2e be b9 44 d7 3d d3 c4 16 3c 52 82 ed bd
       -0.17073266 0.10511155 0.0092022 -0.11597122
0002b0 3f a6 a2 bd 73 78 33 3c f1 aa 3b be 38 80 40 be
       -0.07941865 0.01095401 -0.18326928 -0.18798912
0002c0 ae c4 4d bd a1 0f 82 3e e2 0d ec 3d 71 b5 07 3e
       -0.050236396 0.2540255 0.115260854 0.13252808
0002d0 c5 c6 66 3e aa e4 30 3c 4e 14 fc bc ed c2 99 3e
       0.22536762 0.010796705 -0.0307714 0.3003153
0002e0 82 e5 f7 3b 24 ac fb bd 12 a2 57 bd a4 ac 3e be
       0.0075652013 -0.122886926 -0.052644797 -0.18620545
0002f0 b2 72 28 be 7a d9 73 be be d3 7f 3e b3 6e 2d be
       -0.16450003 -0.2381343 0.24983117 -0.1693676
000300 c5 91 81 ba 9c 10 b8 3d 0a 4b 75 3e f7 ed 04 bd
       -0.0009885362 0.08987543 0.23954406 -0.032453503
000310 87 8e d4 3d d8 1a 1d 3c f9 a7 86 3c a6 25 5f 3e
       0.103787474 0.00958892 0.016437517 0.21791705
000320 6a 01 c9 bd bc 3c 2e 3e b8 82 45 be bb 30 95 3e
       -0.09814723 0.17015356 -0.19288146 0.2913874
000330 ce 30 8c 3d 83 41 9a 3c a1 fc 05 3d 87 47 15 be
       0.06845246 0.018830067 0.03271163 -0.14578067
000340 3d 0d 5c 3e f1 76 3f bd 2d 7b c2 3c c2 e4 fa bd
       0.21489425 -0.04674429 0.023740375 -0.12250663
000350 e1 03 47 3e b1 f5 f0 bd f2 9d 1e be e4 a2 f4 bd
       0.19435073 -0.11765612 -0.15489939 -0.119451314
000360 3d a7 21 be b8 9a ee bd fb b0 67 3d 30 f0 2b be
       -0.15786453 -0.11650604 0.056565266 -0.16790843
000370 f1 c1 11 3d f7 2b 2b be f4 77 1f be 41 d6 e7 bc
       0.035585348 -0.1671599 -0.15573102 -0.028300406
000380 88 89 fb bc 5c ab d1 3c 86 83 1d 3d 9a eb 55 be
       -0.030705228 0.025594406 0.03845551 -0.20890656
000390 aa c0 97 bd a0 8b 6e bd db 54 6a 3e 66 43 61 be
       -0.07409795 -0.058238626 0.22883932 -0.21998367
0003a0 69 38 6b 3e bb 52 4c 3e 1a e3 71 3e 61 47 2a bc
       0.22970738 0.19953434 0.23621789 -0.010392995
0003b0 fa d2 47 3e 49 06 75 3e 81 d5 6e 3e bf d1 43 3e
       0.19514075 0.23928179 0.23323633 0.1912298
0003c0 20 59 50 be 23 d2 2c be 24 da 0c be d1 b7 88 3e
       -0.20346498 -0.16877036 -0.13755089 0.2670274
0003d0 92 c8 8f 3e 6b 0c 3a be 43 40 1a 3e 58 42 0d be
       0.2808271 -0.181688 0.15063576 -0.1379484
0003e0 05 bd 3a be 48 ab 13 be 2e b4 7a bd 49 da 14 be
       -0.18236168 -0.14420807 -0.06120699 -0.14536394
0003f0 f5 de 82 3e 66 05 ff bb dd 95 26 be 77 d8 78 3e
       0.25560728 -0.007782626 -0.16268106 0.24301325

cls_prob.bias f4 [2]
000000 b1 3e e2 3e e9 b0 77 be
       0.44188455 -0.2418858
